…
      sampler {
        min_scale: 0.3
        max_scale: 1
        min_aspect_ratio: 0.5
        max_aspect_ratio: 2
      }
      sample_constraint {
        min_jaccard_overlap: 0.9
      }
      max_sample: 1
      max_trials: 50
    }
    batch_sampler {
      sampler {
        min_scale: 0.3
        max_scale: 1
        min_aspect_ratio: 0.5
        max_aspect_ratio: 2
      }
      sample_constraint {
        max_jaccard_overlap: 1
      }
      max_sample: 1
      max_trials: 50
    }
    label_map_file: "data/VOC0712/labelmap_voc.prototxt"
  }
}
layer {
  name: "conv1"
  type: "Convolution"
  bottom: "data"
  top: "conv1"
  param {
    lr_mult: 0
    decay_mult: 0
  }
  convolution_param {
    num_output: 64
    bias_term: false
    pad: 3
    kernel_size: 7
    stride: 2
    weight_filler {
      type: "gaussian"
      std: 0.01
    }
  }
}
layer {
  name: "bn_conv1"
  type: "BatchNorm"
  bottom: "conv1"
  top: "conv1"
  batch_norm_param {
    use_global_stats: true
    eps: 0.001
  }
}
layer {
  name: "scale_conv1"
  type: "Scale"
  bottom: "conv1"
  top: "conv1"
  param {
    lr_mult: 0
    decay_mult: 0
  }
  param {
    lr_mult: 0
    decay_mult: 0
  }
  scale_param {
    filler {
      type: "constant"
      value: 1
    }
    bias_term: true
    bias_filler {
      type: "constant"
      value: 0
    }
  }
}
layer {
  name: "conv1_relu"
  type: "ReLU"
  bottom: "conv1"
  top: "conv1"
}
layer {
  name: "pool1"
  type: "Pooling"
  bottom: "conv1"
  top: "pool1"
  pooling_param {
    pool: MAX
    kernel_size: 3
    stride: 2
  }
}
layer {
  name: "res2a_branch1"
  type: "Convolution"
  bottom: "pool1"
  top: "res2a_branch1"
  param {
    lr_mult: 0
    decay_mult: 0
  }
  convolution_param {
    num_output: 256
    bias_term: false
    pad: 0
    kernel_size: 1
    stride: 1
    weight_filler {
      type: "gaussian"
      std: 0.01
    }
  }
}
layer {
  name: "bn2a_branch1"
  type: "BatchNorm"
  bottom: "res2a_branch1"
  top: "res2a_branch1"
  batch_norm_param {
    use_global_stats: true
    eps: 0.001
  }
}
layer {
  name: "scale2a_branch1"
  type: "Scale"
  bottom: "res2a_branch1"
  top: "res2a_branch1"
  param {
    lr_mult: 0
    decay_mult: 0
  }
  param {
    lr_mult: 0
    decay_mult: 0
  }
  scale_param {
    filler {
      type: "constant"
      value: 1
    }
    bias_term: true
    bias_filler {
      type: "constant"
      value: 0
    }
  }
}
layer {
  name: "res2a_branch2a"
  type: "Convolution"
  bottom: "pool1"
  top: "res2a_branch2a"
  param {
    lr_mult: 0
    decay_mult: 0
  }
  convolution_param {
    num_output: 64
    bias_term: false
    pad: 0
    kernel_size: 1
    stride: 1
    weight_filler {
      type: "gaussian"
      std: 0.01
    }
  }
}
layer {
  name: "bn2a_branch2a"
  type: "BatchNorm"
  bottom: "res2a_branch2a"
  top: "res2a_branch2a"
  batch_norm_param {
    use_global_stats: true
    eps: 0.001
  }
}
layer {
  name: "scale2a_branch2a"
  type: "Scale"
  bottom: "res2a_branch2a"
  top: "res2a_branch2a"
  param {
    lr_mult: 0
    decay_mult: 0
  }
  param {
    lr_mult: 0
    decay_mult: 0
  }
  scale_param {
    filler {
      type: "constant"
      value: 1
    }
    bias_term: true
    bias_filler {
      type: "constant"
      value: 0
    }
  }
}
layer {
  name: "res2a_branch2a_relu"
  type: "ReLU"
  bottom: "res2a_branch2a"
  top: "res2a_branch2a"
}
layer {
  name: "res2a_branch2b"
  type: "Convolution"
  bottom: "res2a_branch2a"
  top: "res2a_branch2b"
  param {
    lr_mult: 0
    decay_mult: 0
  }
  convolution_param {
    num_output: 64
    bias_term: false
    pad: 1
    kernel_size: 3
    stride: 1
    weight_filler {
      type: "gaussian"
      std: 0.01
    }
  }
}
layer {
  name: "bn2a_branch2b"
  type: "BatchNorm"
  bottom: "res2a_branch2b"
  top: "res2a_branch2b"
  batch_norm_param {
    use_global_stats: true
    eps: 0.001
  }
}
layer {
  name: "scale2a_branch2b"
  type: "Scale"
  bottom: "res2a_branch2b"
  top: "res2a_branch2b"
  param {
    lr_mult: 0
    decay_mult: 0
  }
  param {
    lr_mult: 0
    decay_mult: 0
  }
  scale_param {
    filler {
      type: "constant"
      value: 1
    }
    bias_term: true
    bias_filler {
      type: "constant"
      value: 0
    }
  }
}
layer {
  name: "res2a_branch2b_relu"
  type: "ReLU"
  bottom: "res2a_branch2b"
  top: "res2a_branch2b"
}
layer {
  name: "res2a_branch2c"
  type: "Convolution"
  bottom: "res2a_branch2b"
  top: "res2a_branch2c"
  param {
    lr_mult: 0
    decay_mult: 0
  }
  convolution_param {
    num_output: 256
    bias_term: false
    pad: 0
    kernel_size: 1
    stride: 1
    weight_filler {
      type: "gaussian"
      std: 0.01
    }
  }
}
layer {
  name: "bn2a_branch2c"
  type: "BatchNorm"
  bottom: "res2a_branch2c"
  top: "res2a_branch2c"
  batch_norm_param {
    use_global_stats: true
    eps: 0.001
  }
}
layer {
  name: "scale2a_branch2c"
  type: "Scale"
  bottom: "res2a_branch2c"
  top: "res2a_branch2c"
  param {
    lr_mult: 0
    decay_mult: 0
  }
  param {
    lr_mult: 0
    decay_mult: 0
  }
  scale_param {
    filler {
      type: "constant"
      value: 1
    }
    bias_term: true
    bias_filler {
      type: "constant"
      value: 0
    }
  }
}
layer {
  name: "res2a"
  type: "Eltwise"
  bottom: "res2a_branch1"
  bottom: "res2a_branch2c"
  top: "res2a"
}
layer {
  name: "res2a_relu"
  type: "ReLU"
  bottom: "res2a"
  top: "res2a"
}
layer {
  name: "res2b_branch2a"
  type: "Convolution"
  bottom: "res2a"
  top: "res2b_branch2a"
  param {
    lr_mult: 0
    decay_mult: 0
  }
  convolution_param {
    num_output: 64
    bias_term: false
    pad: 0
    kernel_size: 1
    stride: 1
    weight_filler {
      type: "gaussian"
      std: 0.01
    }
  }
}
layer {
  name: "bn2b_branch2a"
  type: "BatchNorm"
  bottom: "res2b_branch2a"
  top: "res2b_branch2a"
  batch_norm_param {
    use_global_stats: true
    eps: 0.001
  }
}
layer {
  name: "scale2b_branch2a"
  type: "Scale"
  bottom: "res2b_branch2a"
  top: "res2b_branch2a"
  param {
    lr_mult: 0
    decay_mult: 0
  }
  param {
    lr_mult: 0
    decay_mult: 0
  }
  scale_param {
    filler {
      type: "constant"
      value: 1
    }
    bias_term: true
    bias_filler {
      type: "constant"
      value: 0
    }
  }
}
layer {
  name: "res2b_branch2a_relu"
  type: "ReLU"
  bottom: "res2b_branch2a"
  top: "res2b_branch2a"
}
layer {
  name: "res2b_branch2b"
  type: "Convolution"
  bottom: "res2b_branch2a"
  top: "res2b_branch2b"
  param {
    lr_mult: 0
    decay_mult: 0
  }
  convolution_param {
    num_output: 64
    bias_term: false
    pad: 1
    kernel_size: 3
    stride: 1
    weight_filler {
      type: "gaussian"
      std: 0.01
    }
  }
}
layer {
  name: "bn2b_branch2b"
  type: "BatchNorm"
  bottom: "res2b_branch2b"
  top: "res2b_branch2b"
  batch_norm_param {
    use_global_stats: true
    eps: 0.001
  }
}
layer {
  name: "scale2b_branch2b"
  type: "Scale"
  bottom: "res2b_branch2b"
  top: "res2b_branch2b"
  param {
    lr_mult: 0
    decay_mult: 0
  }
  param {
    lr_mult: 0
    decay_mult: 0
  }
  scale_param {
    filler {
      type: "constant"
      value: 1
    }
    bias_term: true
    bias_filler {
      type: "constant"
      value: 0
    }
  }
}
layer {
  name: "res2b_branch2b_relu"
  type: "ReLU"
  bottom: "res2b_branch2b"
  top: "res2b_branch2b"
}
layer {
  name: "res2b_branch2c"
  type: "Convolution"
  bottom: "res2b_branch2b"
  top: "res2b_branch2c"
  param {
    lr_mult: 0
    decay_mult: 0
  }
  convolution_param {
    num_output: 256
    bias_term: false
    pad: 0
    kernel_size: 1
    stride: 1
    weight_filler {
      type: "gaussian"
      std: 0.01
    }
  }
}
layer {
  name: "bn2b_branch2c"
  type: "BatchNorm"
  bottom: "res2b_branch2c"
  top: "res2b_branch2c"
  batch_norm_param {
    use_global_stats: true
    eps: 0.001
  }
}
layer {
  name: "scale2b_branch2c"
  type: "Scale"
  bottom: "res2b_branch2c"
  top: "res2b_branch2c"
  param {
    lr_mult: 0
    decay_mult: 0
  }
  param {
    lr_mult: 0
    decay_mult: 0
  }
  scale_param {
    filler {
      type: "constant"
      value: 1
    }
    bias_term: true
    bias_filler {
      type: "constant"
      value: 0
    }
  }
}
layer {
  name: "res2b"
  type: "Eltwise"
  bottom: "res2a"
  bottom: "res2b_branch2c"
  top: "res2b"
}
layer {
  name: "res2b_relu"
  type: "ReLU"
  bottom: "res2b"
  top: "res2b"
}
layer {
  name: "res2c_branch2a"
  type: "Convolution"
  bottom: "res2b"
  top: "res2c_branch2a"
  param {
    lr_mult: 0
    decay_mult: 0
  }
  convolution_param {
    num_output: 64
    bias_term: false
    pad: 0
    kernel_size: 1
    stride: 1
    weight_filler {
      type: "gaussian"
      std: 0.01
    }
  }
}
layer {
  name: "bn2c_branch2a"
  type: "BatchNorm"
  bottom: "res2c_branch2a"
  top: "res2c_branch2a"
  batch_norm_param {
    use_global_stats: true
    eps: 0.001
  }
}
layer {
  name: "scale2c_branch2a"
  type: "Scale"
  bottom: "res2c_branch2a"
  top: "res2c_branch2a"
  param {
    lr_mult: 0
    decay_mult: 0
  }
  param {
    lr_mult: 0
    decay_mult: 0
  }
  scale_param {
    filler {
      type: "constant"
      value: 1
    }
    bias_term: true
    bias_filler {
      type: "constant"
      value: 0
    }
  }
}
layer {
  name: "res2c_branch2a_relu"
  type: "ReLU"
  bottom: "res2c_branch2a"
  top: "res2c_branch2a"
}
layer {
  name: "res2c_branch2b"
  type: "Convolution"
  bottom: "res2c_branch2a"
  top: "res2c_branch2b"
  param {
    lr_mult: 0
    decay_mult: 0
  }
  convolution_param {
    num_output: 64
    bias_term: false
    pad: 1
    kernel_size: 3
    stride: 1
    weight_filler {
      type: "gaussian"
      std: 0.01
    }
  }
}
layer {
  name: "bn2c_branch2b"
  type: "BatchNorm"
  bottom: "res2c_branch2b"
  top: "res2c_branch2b"
  batch_norm_param {
    use_global_stats: true
    eps: 0.001
  }
}
layer {
  name: "scale2c_branch2b"
  type: "Scale"
  bottom: "res2c_branch2b"
  top: "res2c_branch2b"
  param {
    lr_mult: 0
    decay_mult: 0
  }
  param {
    lr_mult: 0
    decay_mult: 0
  }
  scale_param {
    filler {
      type: "constant"
      value: 1
    }
    bias_term: true
    bias_filler {
      type: "constant"
      value: 0
    }
  }
}
layer {
  name: "res2c_branch2b_relu"
  type: "ReLU"
  bottom: "res2c_branch2b"
  top: "res2c_branch2b"
}
layer {
  name: "res2c_branch2c"
  type: "Convolution"
  bottom: "res2c_branch2b"
  top: "res2c_branch2c"
  param {
    lr_mult: 0
    decay_mult: 0
  }
  convolution_param {
    num_output: 256
    bias_term: false
    pad: 0
    kernel_size: 1
    stride: 1
    weight_filler {
      type: "gaussian"
      std: 0.01
    }
  }
}
layer {
  name: "bn2c_branch2c"
  type: "BatchNorm"
  bottom: "res2c_branch2c"
  top: "res2c_branch2c"
  batch_norm_param {
    use_global_stats: true
    eps: 0.001
  }
}
layer {
  name: "scale2c_branch2c"
  type: "Scale"
  bottom: "res2c_branch2c"
  top: "res2c_branch2c"
  param {
    lr_mult: 0
    decay_mult: 0
  }
  param {
    lr_mult: 0
    decay_mult: 0
  }
  scale_param {
    filler {
      type: "constant"
      value: 1
    }
    bias_term: true
    bias_filler {
      type: "constant"
      value: 0
    }
  }
}
layer {
  name: "res2c"
  type: "Eltwise"
  bottom: "res2b"
  bottom: "res2c_branch2c"
  top: "res2c"
}
layer {
  name: "res2c_relu"
  type: "ReLU"
  bottom: "res2c"
  top: "res2c"
}
layer {
  name: "res3a_branch1"
  type: "Convolution"
  bottom: "res2c"
  top: "res3a_branch1"
  param {
    lr_mult: 0
    decay_mult: 0
  }
  convolution_param {
    num_output: 512
    bias_term: false
    pad: 0
    kernel_size: 1
    stride: 2
    weight_filler {
      type: "gaussian"
      std: 0.01
    }
  }
}
layer {
  name: "bn3a_branch1"
  type: "BatchNorm"
  bottom: "res3a_branch1"
  top: "res3a_branch1"
  batch_norm_param {
    use_global_stats: true
    eps: 0.001
  }
}
layer {
  name: "scale3a_branch1"
  type: "Scale"
  bottom: "res3a_branch1"
  top: "res3a_branch1"
  param {
    lr_mult: 0
    decay_mult: 0
  }
  param {
    lr_mult: 0
    decay_mult: 0
  }
  scale_param {
    filler {
      type: "constant"
      value: 1
    }
    bias_term: true
    bias_filler {
      type: "constant"
      value: 0
    }
  }
}
layer {
  name: "res3a_branch2a"
  type: "Convolution"
  bottom: "res2c"
  top: "res3a_branch2a"
  param {
    lr_mult: 0
    decay_mult: 0
  }
  convolution_param {
    num_output: 128
    bias_term: false
    pad: 0
    kernel_size: 1
    stride: 2
    weight_filler {
      type: "gaussian"
      std: 0.01
    }
  }
}
layer {
  name: "bn3a_branch2a"
  type: "BatchNorm"
  bottom: "res3a_branch2a"
  top: "res3a_branch2a"
  batch_norm_param {
    use_global_stats: true
    eps: 0.001
  }
}
layer {
  name: "scale3a_branch2a"
  type: "Scale"
  bottom: "res3a_branch2a"
  top: "res3a_branch2a"
  param {
    lr_mult: 0
    decay_mult: 0
  }
  param {
    lr_mult: 0
    decay_mult: 0
  }
  scale_param {
    filler {
      type: "constant"
      value: 1
    }
    bias_term: true
    bias_filler {
      type: "constant"
      value: 0
    }
  }
}
layer {
  name: "res3a_branch2a_relu"
  type: "ReLU"
  bottom: "res3a_branch2a"
  top: "res3a_branch2a"
}
layer {
  name: "res3a_branch2b"
  type: "Convolution"
  bottom: "res3a_branch2a"
  top: "res3a_branch2b"
  param {
    lr_mult: 0
    decay_mult: 0
  }
  convolution_param {
    num_output: 128
    bias_term: false
    pad: 1
    kernel_size: 3
    stride: 1
    weight_filler {
      type: "gaussian"
      std: 0.01
    }
  }
}
layer {
  name: "bn3a_branch2b"
  type: "BatchNorm"
  bottom: "res3a_branch2b"
  top: "res3a_branch2b"
  batch_norm_param {
    use_global_stats: true
    eps: 0.001
  }
}
layer {
  name: "scale3a_branch2b"
  type: "Scale"
  bottom: "res3a_branch2b"
  top: "res3a_branch2b"
  param {
    lr_mult: 0
    decay_mult: 0
  }
  param {
    lr_mult: 0
    decay_mult: 0
  }
  scale_param {
    filler {
      type: "constant"
      value: 1
    }
    bias_term: true
    bias_filler {
      type: "constant"
      value: 0
    }
  }
}
layer {
  name: "res3a_branch2b_relu"
  type: "ReLU"
  bottom: "res3a_branch2b"
  top: "res3a_branch2b"
}
layer {
  name: "res3a_branch2c"
  type: "Convolution"
  bottom: "res3a_branch2b"
  top: "res3a_branch2c"
  param {
    lr_mult: 0
    decay_mult: 0
  }
  convolution_param {
    num_output: 512
    bias_term: false
    pad: 0
    kernel_size: 1
    stride: 1
    weight_filler {
      type: "gaussian"
      std: 0.01
    }
  }
}
layer {
  name: "bn3a_branch2c"
  type: "BatchNorm"
  bottom: "res3a_branch2c"
  top: "res3a_branch2c"
  batch_norm_param {
    use_global_stats: true
    eps: 0.001
  }
}
layer {
  name: "scale3a_branch2c"
  type: "Scale"
  bottom: "res3a_branch2c"
  top: "res3a_branch2c"
  param {
    lr_mult: 0
    decay_mult: 0
  }
  param {
    lr_mult: 0
    decay_mult: 0
  }
  scale_param {
    filler {
      type: "constant"
      value: 1
    }
    bias_term: true
    bias_filler {
      type: "constant"
      value: 0
    }
  }
}
layer {
  name: "res3a"
  type: "Eltwise"
  bottom: "res3a_branch1"
  bottom: "res3a_branch2c"
  top: "res3a"
}
layer {
  name: "res3a_relu"
  type: "ReLU"
  bottom: "res3a"
  top: "res3a"
}
layer {
  name: "res3b1_branch2a"
  type: "Convolution"
  bottom: "res3a"
  top: "res3b1_branch2a"
  param {
    lr_mult: 0
    decay_mult: 0
  }
  convolution_param {
    num_output: 128
    bias_term: false
    pad: 0
    kernel_size: 1
    stride: 1
    weight_filler {
      type: "gaussian"
      std: 0.01
    }
  }
}
layer {
  name: "bn3b1_branch2a"
  type: "BatchNorm"
  bottom: "res3b1_branch2a"
  top: "res3b1_branch2a"
  batch_norm_param {
    use_global_stats: true
    eps: 0.001
  }
}
layer {
  name: "scale3b1_branch2a"
  type: "Scale"
  bottom: "res3b1_branch2a"
  top: "res3b1_branch2a"
  param {
    lr_mult: 0
    decay_mult: 0
  }
  param {
    lr_mult: 0
    decay_mult: 0
  }
  scale_param {
    filler {
      type: "constant"
      value: 1
    }
    bias_term: true
    bias_filler {
      type: "constant"
      value: 0
    }
  }
}
layer {
  name: "res3b1_branch2a_relu"
  type: "ReLU"
  bottom: "res3b1_branch2a"
  top: "res3b1_branch2a"
}
layer {
  name: "res3b1_branch2b"
  type: "Convolution"
  bottom: "res3b1_branch2a"
  top: "res3b1_branch2b"
  param {
    lr_mult: 0
    decay_mult: 0
  }
  convolution_param {
    num_output: 128
    bias_term: false
    pad: 1
    kernel_size: 3
    stride: 1
    weight_filler {
      type: "gaussian"
      std: 0.01
    }
  }
}
layer {
  name: "bn3b1_branch2b"
  type: "BatchNorm"
  bottom: "res3b1_branch2b"
  top: "res3b1_branch2b"
  batch_norm_param {
    use_global_stats: true
    eps: 0.001
  }
}
layer {
  name: "scale3b1_branch2b"
  type: "Scale"
  bottom: "res3b1_branch2b"
  top: "res3b1_branch2b"
  param {
    lr_mult: 0
    decay_mult: 0
  }
  param {
    lr_mult: 0
    decay_mult: 0
  }
  scale_param {
    filler {
      type: "constant"
      value: 1
    }
    bias_term: true
    bias_filler {
      type: "constant"
      value: 0
    }
  }
}
layer {
  name: "res3b1_branch2b_relu"
  type: "ReLU"
  bottom: "res3b1_branch2b"
  top: "res3b1_branch2b"
}
layer {
  name: "res3b1_branch2c"
  type: "Convolution"
  bottom: "res3b1_branch2b"
  top: "res3b1_branch2c"
  param {
    lr_mult: 0
    decay_mult: 0
  }
  convolution_param {
    num_output: 512
    bias_term: false
    pad: 0
    kernel_size: 1
    stride: 1
    weight_filler {
      type: "gaussian"
      std: 0.01
    }
  }
}
layer {
  name: "bn3b1_branch2c"
  type: "BatchNorm"
  bottom: "res3b1_branch2c"
  top: "res3b1_branch2c"
  batch_norm_param {
    use_global_stats: true
    eps: 0.001
  }
}
layer {
  name: "scale3b1_branch2c"
  type: "Scale"
  bottom: "res3b1_branch2c"
  top: "res3b1_branch2c"
  param {
    lr_mult: 0
    decay_mult: 0
  }
  param {
    lr_mult: 0
    decay_mult: 0
  }
  scale_param {
    filler {
      type: "constant"
      value: 1
    }
    bias_term: true
    bias_filler {
      type: "constant"
      value: 0
    }
  }
}
layer {
  name: "res3b1"
  type: "Eltwise"
  bottom: "res3a"
  bottom: "res3b1_branch2c"
  top: "res3b1"
}
layer {
  name: "res3b1_relu"
  type: "ReLU"
  bottom: "res3b1"
  top: "res3b1"
}
layer {
  name: "res3b2_branch2a"
  type: "Convolution"
  bottom: "res3b1"
  top: "res3b2_branch2a"
  param {
    lr_mult: 0
    decay_mult: 0
  }
  convolution_param {
    num_output: 128
    bias_term: false
    pad: 0
    kernel_size: 1
    stride: 1
    weight_filler {
      type: "gaussian"
      std: 0.01
    }
  }
}
layer {
  name: "bn3b2_branch2a"
  type: "BatchNorm"
  bottom: "res3b2_branch2a"
  top: "res3b2_branch2a"
  batch_norm_param {
    use_global_stats: true
    eps: 0.001
  }
}
layer {
  name: "scale3b2_branch2a"
  type: "Scale"
  bottom: "res3b2_branch2a"
  top: "res3b2_branch2a"
  param {
    lr_mult: 0
    decay_mult: 0
  }
  param {
    lr_mult: 0
    decay_mult: 0
  }
  scale_param {
    filler {
      type: "constant"
      value: 1
    }
    bias_term: true
    bias_filler {
      type: "constant"
      value: 0
    }
  }
}
layer {
  name: "res3b2_branch2a_relu"
  type: "ReLU"
  bottom: "res3b2_branch2a"
  top: "res3b2_branch2a"
}
layer {
  name: "res3b2_branch2b"
  type: "Convolution"
  bottom: "res3b2_branch2a"
  top: "res3b2_branch2b"
  param {
    lr_mult: 0
    decay_mult: 0
  }
  convolution_param {
    num_output: 128
    bias_term: false
    pad: 1
    kernel_size: 3
    stride: 1
    weight_filler {
      type: "gaussian"
      std: 0.01
    }
  }
}
layer {
  name: "bn3b2_branch2b"
  type: "BatchNorm"
  bottom: "res3b2_branch2b"
  top: "res3b2_branch2b"
  batch_norm_param {
    use_global_stats: true
    eps: 0.001
  }
}
layer {
  name: "scale3b2_branch2b"
  type: "Scale"
  bottom: "res3b2_branch2b"
  top: "res3b2_branch2b"
  param {
    lr_mult: 0
    decay_mult: 0
  }
  param {
    lr_mult: 0
    decay_mult: 0
  }
  scale_param {
    filler {
      type: "constant"
      value: 1
    }
    bias_term: true
    bias_filler {
      type: "constant"
      value: 0
    }
  }
}
layer {
  name: "res3b2_branch2b_relu"
  type: "ReLU"
  bottom: "res3b2_branch2b"
  top: "res3b2_branch2b"
}
layer {
  name: "res3b2_branch2c"
  type: "Convolution"
  bottom: "res3b2_branch2b"
  top: "res3b2_branch2c"
  param {
    lr_mult: 0
    decay_mult: 0
  }
  convolution_param {
    num_output: 512
    bias_term: false
    pad: 0
    kernel_size: 1
    stride: 1
    weight_filler {
      type: "gaussian"
      std: 0.01
    }
  }
}
layer {
  name: "bn3b2_branch2c"
  type: "BatchNorm"
  bottom: "res3b2_branch2c"
  top: "res3b2_branch2c"
  batch_norm_param {
    use_global_stats: true
    eps: 0.001
  }
}
layer {
  name: "scale3b2_branch2c"
  type: "Scale"
  bottom: "res3b2_branch2c"
  top: "res3b2_branch2c"
  param {
    lr_mult: 0
    decay_mult: 0
  }
  param {
    lr_mult: 0
    decay_mult: 0
  }
  scale_param {
    filler {
      type: "constant"
      value: 1
    }
    bias_term: true
    bias_filler {
      type: "constant"
      value: 0
    }
  }
}
layer {
  name: "res3b2"
  type: "Eltwise"
  bottom: "res3b1"
  bottom: "res3b2_branch2c"
  top: "res3b2"
}
layer {
  name: "res3b2_relu"
  type: "ReLU"
  bottom: "res3b2"
  top: "res3b2"
}
layer {
  name: "res3b3_branch2a"
  type: "Convolution"
  bottom: "res3b2"
  top: "res3b3_branch2a"
  param {
    lr_mult: 0
    decay_mult: 0
  }
  convolution_param {
    num_output: 128
    bias_term: false
    pad: 0
    kernel_size: 1
    stride: 1
    weight_filler {
      type: "gaussian"
      std: 0.01
    }
  }
}
layer {
  name: "bn3b3_branch2a"
  type: "BatchNorm"
  bottom: "res3b3_branch2a"
  top: "res3b3_branch2a"
  batch_norm_param {
    use_global_stats: true
    eps: 0.001
  }
}
layer {
  name: "scale3b3_branch2a"
  type: "Scale"
  bottom: "res3b3_branch2a"
  top: "res3b3_branch2a"
  param {
    lr_mult: 0
    decay_mult: 0
  }
  param {
    lr_mult: 0
    decay_mult: 0
  }
  scale_param {
    filler {
      type: "constant"
      value: 1
    }
    bias_term: true
    bias_filler {
      type: "constant"
      value: 0
    }
  }
}
layer {
  name: "res3b3_branch2a_relu"
  type: "ReLU"
  bottom: "res3b3_branch2a"
  top: "res3b3_branch2a"
}
layer {
  name: "res3b3_branch2b"
  type: "Convolution"
  bottom: "res3b3_branch2a"
  top: "res3b3_branch2b"
  param {
    lr_mult: 0
    decay_mult: 0
  }
  convolution_param {
    num_output: 128
    bias_term: false
    pad: 1
    kernel_size: 3
    stride: 1
    weight_filler {
      type: "gaussian"
      std: 0.01
    }
  }
}
layer {
  name: "bn3b3_branch2b"
  type: "BatchNorm"
  bottom: "res3b3_branch2b"
  top: "res3b3_branch2b"
  batch_norm_param {
    use_global_stats: true
    eps: 0.001
  }
}
layer {
  name: "scale3b3_branch2b"
  type: "Scale"
  bottom: "res3b3_branch2b"
  top: "res3b3_branch2b"
  param {
    lr_mult: 0
    decay_mult: 0
  }
  param {
    lr_mult: 0
    decay_mult: 0
  }
  scale_param {
    filler {
      type: "constant"
      value: 1
    }
    bias_term: true
    bias_filler {
      type: "constant"
      value: 0
    }
  }
}
layer {
  name: "res3b3_branch2b_relu"
  type: "ReLU"
  bottom: "res3b3_branch2b"
  top: "res3b3_branch2b"
}
layer {
  name: "res3b3_branch2c"
  type: "Convolution"
  bottom: "res3b3_branch2b"
  top: "res3b3_branch2c"
  param {
    lr_mult: 0
    decay_mult: 0
  }
  convolution_param {
    num_output: 512
    bias_term: false
    pad: 0
    kernel_size: 1
    stride: 1
    weight_filler {
      type: "gaussian"
      std: 0.01
    }
  }
}
layer {
  name: "bn3b3_branch2c"
  type: "BatchNorm"
  bottom: "res3b3_branch2c"
  top: "res3b3_branch2c"
  batch_norm_param {
    use_global_stats: true
    eps: 0.001
  }
}
layer {
  name: "scale3b3_branch2c"
  type: "Scale"
  bottom: "res3b3_branch2c"
  top: "res3b3_branch2c"
  param {
    lr_mult: 0
    decay_mult: 0
  }
  param {
    lr_mult: 0
    decay_mult: 0
  }
  scale_param {
    filler {
      type: "constant"
      value: 1
    }
    bias_term: true
    bias_filler {
      type: "constant"
      value: 0
    }
  }
}
layer {
  name: "res3b3"
  type: "Eltwise"
  bottom: "res3b2"
  bottom: "res3b3_branch2c"
  top: "res3b3"
}
layer {
  name: "res3b3_relu"
  type: "ReLU"
  bottom: "res3b3"
  top: "res3b3"
}
layer {
  name: "res4a_branch1"
  type: "Convolution"
  bottom: "res3b3"
  top: "res4a_branch1"
  param {
    lr_mult: 0
    decay_mult: 0
  }
  convolution_param {
    num_output: 1024
    bias_term: false
    pad: 0
    kernel_size: 1
    stride: 2
    weight_filler {
      type: "gaussian"
      std: 0.01
    }
  }
}
layer {
  name: "bn4a_branch1"
  type: "BatchNorm"
  bottom: "res4a_branch1"
  top: "res4a_branch1"
  batch_norm_param {
    use_global_stats: true
    eps: 0.001
  }
}
layer {
  name: "scale4a_branch1"
  type: "Scale"
  bottom: "res4a_branch1"
  top: "res4a_branch1"
  param {
    lr_mult: 0
    decay_mult: 0
  }
  param {
    lr_mult: 0
    decay_mult: 0
  }
  scale_param {
    filler {
      type: "constant"
      value: 1
    }
    bias_term: true
    bias_filler {
      type: "constant"
      value: 0
    }
  }
}
layer {
  name: "res4a_branch2a"
  type: "Convolution"
  bottom: "res3b3"
  top: "res4a_branch2a"
  param {
    lr_mult: 0
    decay_mult: 0
  }
  convolution_param {
    num_output: 256
    bias_term: false
    pad: 0
    kernel_size: 1
    stride: 2
    weight_filler {
      type: "gaussian"
      std: 0.01
    }
  }
}
layer {
  name: "bn4a_branch2a"
  type: "BatchNorm"
  bottom: "res4a_branch2a"
  top: "res4a_branch2a"
  batch_norm_param {
    use_global_stats: true
    eps: 0.001
  }
}
layer {
  name: "scale4a_branch2a"
  type: "Scale"
  bottom: "res4a_branch2a"
  top: "res4a_branch2a"
  param {
    lr_mult: 0
    decay_mult: 0
  }
  param {
    lr_mult: 0
    decay_mult: 0
  }
  scale_param {
    filler {
      type: "constant"
      value: 1
    }
    bias_term: true
    bias_filler {
      type: "constant"
      value: 0
    }
  }
}
layer {
  name: "res4a_branch2a_relu"
  type: "ReLU"
  bottom: "res4a_branch2a"
  top: "res4a_branch2a"
}
layer {
  name: "res4a_branch2b"
  type: "Convolution"
  bottom: "res4a_branch2a"
  top: "res4a_branch2b"
  param {
    lr_mult: 0
    decay_mult: 0
  }
  convolution_param {
    num_output: 256
    bias_term: false
    pad: 1
    kernel_size: 3
    stride: 1
    weight_filler {
      type: "gaussian"
      std: 0.01
    }
  }
}
layer {
  name: "bn4a_branch2b"
  type: "BatchNorm"
  bottom: "res4a_branch2b"
  top: "res4a_branch2b"
  batch_norm_param {
    use_global_stats: true
    eps: 0.001
  }
}
layer {
  name: "scale4a_branch2b"
  type: "Scale"
  bottom: "res4a_branch2b"
  top: "res4a_branch2b"
  param {
    lr_mult: 0
    decay_mult: 0
  }
  param {
    lr_mult: 0
    decay_mult: 0
  }
  scale_param {
    filler {
      type: "constant"
      value: 1
    }
    bias_term: true
    bias_filler {
      type: "constant"
      value: 0
    }
  }
}
layer {
  name: "res4a_branch2b_relu"
  type: "ReLU"
  bottom: "res4a_branch2b"
  top: "res4a_branch2b"
}
layer {
  name: "res4a_branch2c"
  type: "Convolution"
  bottom: "res4a_branch2b"
  top: "res4a_branch2c"
  param {
    lr_mult: 0
    decay_mult: 0
  }
  convolution_param {
    num_output: 1024
    bias_term: false
    pad: 0
    kernel_size: 1
    stride: 1
    weight_filler {
      type: "gaussian"
      std: 0.01
    }
  }
}
layer {
  name: "bn4a_branch2c"
  type: "BatchNorm"
  bottom: "res4a_branch2c"
  top: "res4a_branch2c"
  batch_norm_param {
    use_global_stats: true
    eps: 0.001
  }
}
layer {
  name: "scale4a_branch2c"
  type: "Scale"
  bottom: "res4a_branch2c"
  top: "res4a_branch2c"
  param {
    lr_mult: 0
    decay_mult: 0
  }
  param {
    lr_mult: 0
    decay_mult: 0
  }
  scale_param {
    filler {
      type: "constant"
      value: 1
   
I0616 20:17:38.055336 55647 layer_factory.hpp:77] Creating layer data
I0616 20:17:38.055539 55647 net.cpp:100] Creating Layer data
I0616 20:17:38.055552 55647 net.cpp:408] data -> data
I0616 20:17:38.055588 55647 net.cpp:408] data -> label
I0616 20:17:38.056228 55676 db_lmdb.cpp:35] Opened lmdb VOC0712/VOCdevkit/VOC0712/lmdb/VOC0712_trainval_lmdb
I0616 20:17:41.988183 55647 annotated_data_layer.cpp:62] output data size: 4,3,321,321
I0616 20:17:41.994438 55647 net.cpp:150] Setting up data
I0616 20:17:41.994458 55647 net.cpp:157] Top shape: 4 3 321 321 (1236492)
I0616 20:17:41.994467 55647 net.cpp:157] Top shape: 1 1 3 8 (24)
I0616 20:17:41.994469 55647 net.cpp:165] Memory required for data: 4946064
I0616 20:17:41.994478 55647 layer_factory.hpp:77] Creating layer data_data_0_split
I0616 20:17:41.994493 55647 net.cpp:100] Creating Layer data_data_0_split
I0616 20:17:41.994516 55647 net.cpp:434] data_data_0_split <- data
I0616 20:17:41.994527 55647 net.cpp:408] data_data_0_split -> data_data_0_split_0
I0616 20:17:41.994537 55647 net.cpp:408] data_data_0_split -> data_data_0_split_1
I0616 20:17:41.994544 55647 net.cpp:408] data_data_0_split -> data_data_0_split_2
I0616 20:17:41.994546 55647 net.cpp:408] data_data_0_split -> data_data_0_split_3
I0616 20:17:41.994550 55647 net.cpp:408] data_data_0_split -> data_data_0_split_4
I0616 20:17:41.994555 55647 net.cpp:408] data_data_0_split -> data_data_0_split_5
I0616 20:17:41.994560 55647 net.cpp:408] data_data_0_split -> data_data_0_split_6
I0616 20:17:41.994629 55647 net.cpp:150] Setting up data_data_0_split
I0616 20:17:41.994632 55647 net.cpp:157] Top shape: 4 3 321 321 (1236492)
I0616 20:17:41.994635 55647 net.cpp:157] Top shape: 4 3 321 321 (1236492)
I0616 20:17:41.994658 55647 net.cpp:157] Top shape: 4 3 321 321 (1236492)
I0616 20:17:41.994662 55647 net.cpp:157] Top shape: 4 3 321 321 (1236492)
I0616 20:17:41.994664 55647 net.cpp:157] Top shape: 4 3 321 321 (1236492)
I0616 20:17:41.994666 55647 net.cpp:157] Top shape: 4 3 321 321 (1236492)
I0616 20:17:41.994669 55647 net.cpp:157] Top shape: 4 3 321 321 (1236492)
I0616 20:17:41.994673 55647 net.cpp:165] Memory required for data: 39567840
I0616 20:17:41.994673 55647 layer_factory.hpp:77] Creating layer conv1
I0616 20:17:41.994688 55647 net.cpp:100] Creating Layer conv1
I0616 20:17:41.994691 55647 net.cpp:434] conv1 <- data_data_0_split_0
I0616 20:17:41.994695 55647 net.cpp:408] conv1 -> conv1
I0616 20:17:41.994876 55647 net.cpp:150] Setting up conv1
I0616 20:17:41.994879 55647 net.cpp:157] Top shape: 4 64 161 161 (6635776)
I0616 20:17:41.994882 55647 net.cpp:165] Memory required for data: 66110944
I0616 20:17:41.994894 55647 layer_factory.hpp:77] Creating layer bn_conv1
I0616 20:17:41.994901 55647 net.cpp:100] Creating Layer bn_conv1
I0616 20:17:41.994904 55647 net.cpp:434] bn_conv1 <- conv1
I0616 20:17:41.994905 55647 net.cpp:395] bn_conv1 -> conv1 (in-place)
I0616 20:17:41.995043 55647 net.cpp:150] Setting up bn_conv1
I0616 20:17:41.995048 55647 net.cpp:157] Top shape: 4 64 161 161 (6635776)
I0616 20:17:41.995050 55647 net.cpp:165] Memory required for data: 92654048
I0616 20:17:41.995055 55647 layer_factory.hpp:77] Creating layer scale_conv1
I0616 20:17:41.995061 55647 net.cpp:100] Creating Layer scale_conv1
I0616 20:17:41.995064 55647 net.cpp:434] scale_conv1 <- conv1
I0616 20:17:41.995069 55647 net.cpp:395] scale_conv1 -> conv1 (in-place)
I0616 20:17:41.995098 55647 layer_factory.hpp:77] Creating layer scale_conv1
I0616 20:17:41.995220 55647 net.cpp:150] Setting up scale_conv1
I0616 20:17:41.995227 55647 net.cpp:157] Top shape: 4 64 161 161 (6635776)
I0616 20:17:41.995230 55647 net.cpp:165] Memory required for data: 119197152
I0616 20:17:41.995234 55647 layer_factory.hpp:77] Creating layer conv1_relu
I0616 20:17:41.995237 55647 net.cpp:100] Creating Layer conv1_relu
I0616 20:17:41.995239 55647 net.cpp:434] conv1_relu <- conv1
I0616 20:17:41.995242 55647 net.cpp:395] conv1_relu -> conv1 (in-place)
I0616 20:17:41.995250 55647 net.cpp:150] Setting up conv1_relu
I0616 20:17:41.995254 55647 net.cpp:157] Top shape: 4 64 161 161 (6635776)
I0616 20:17:41.995255 55647 net.cpp:165] Memory required for data: 145740256
I0616 20:17:41.995257 55647 layer_factory.hpp:77] Creating layer pool1
I0616 20:17:41.995260 55647 net.cpp:100] Creating Layer pool1
I0616 20:17:41.995262 55647 net.cpp:434] pool1 <- conv1
I0616 20:17:41.995265 55647 net.cpp:408] pool1 -> pool1
I0616 20:17:41.995288 55647 net.cpp:150] Setting up pool1
I0616 20:17:41.995291 55647 net.cpp:157] Top shape: 4 64 80 80 (1638400)
I0616 20:17:41.995294 55647 net.cpp:165] Memory required for data: 152293856
I0616 20:17:41.995296 55647 layer_factory.hpp:77] Creating layer pool1_pool1_0_split
I0616 20:17:41.995299 55647 net.cpp:100] Creating Layer pool1_pool1_0_split
I0616 20:17:41.995301 55647 net.cpp:434] pool1_pool1_0_split <- pool1
I0616 20:17:41.995304 55647 net.cpp:408] pool1_pool1_0_split -> pool1_pool1_0_split_0
I0616 20:17:41.995309 55647 net.cpp:408] pool1_pool1_0_split -> pool1_pool1_0_split_1
I0616 20:17:41.995329 55647 net.cpp:150] Setting up pool1_pool1_0_split
I0616 20:17:41.995333 55647 net.cpp:157] Top shape: 4 64 80 80 (1638400)
I0616 20:17:41.995337 55647 net.cpp:157] Top shape: 4 64 80 80 (1638400)
I0616 20:17:41.995339 55647 net.cpp:165] Memory required for data: 165401056
I0616 20:17:41.995342 55647 layer_factory.hpp:77] Creating layer res2a_branch1
I0616 20:17:41.995348 55647 net.cpp:100] Creating Layer res2a_branch1
I0616 20:17:41.995352 55647 net.cpp:434] res2a_branch1 <- pool1_pool1_0_split_0
I0616 20:17:41.995355 55647 net.cpp:408] res2a_branch1 -> res2a_branch1
I0616 20:17:41.995546 55647 net.cpp:150] Setting up res2a_branch1
I0616 20:17:41.995551 55647 net.cpp:157] Top shape: 4 256 80 80 (6553600)
I0616 20:17:41.995554 55647 net.cpp:165] Memory required for data: 191615456
I0616 20:17:41.995568 55647 layer_factory.hpp:77] Creating layer bn2a_branch1
I0616 20:17:41.995570 55647 net.cpp:100] Creating Layer bn2a_branch1
I0616 20:17:41.995573 55647 net.cpp:434] bn2a_branch1 <- res2a_branch1
I0616 20:17:41.995576 55647 net.cpp:395] bn2a_branch1 -> res2a_branch1 (in-place)
I0616 20:17:41.995668 55647 net.cpp:150] Setting up bn2a_branch1
I0616 20:17:41.995673 55647 net.cpp:157] Top shape: 4 256 80 80 (6553600)
I0616 20:17:41.995676 55647 net.cpp:165] Memory required for data: 217829856
I0616 20:17:41.995680 55647 layer_factory.hpp:77] Creating layer scale2a_branch1
I0616 20:17:41.995684 55647 net.cpp:100] Creating Layer scale2a_branch1
I0616 20:17:41.995685 55647 net.cpp:434] scale2a_branch1 <- res2a_branch1
I0616 20:17:41.995688 55647 net.cpp:395] scale2a_branch1 -> res2a_branch1 (in-place)
I0616 20:17:41.995708 55647 layer_factory.hpp:77] Creating layer scale2a_branch1
I0616 20:17:41.995764 55647 net.cpp:150] Setting up scale2a_branch1
I0616 20:17:41.995767 55647 net.cpp:157] Top shape: 4 256 80 80 (6553600)
I0616 20:17:41.995771 55647 net.cpp:165] Memory required for data: 244044256
I0616 20:17:41.995774 55647 layer_factory.hpp:77] Creating layer res2a_branch2a
I0616 20:17:41.995779 55647 net.cpp:100] Creating Layer res2a_branch2a
I0616 20:17:41.995781 55647 net.cpp:434] res2a_branch2a <- pool1_pool1_0_split_1
I0616 20:17:41.995784 55647 net.cpp:408] res2a_branch2a -> res2a_branch2a
I0616 20:17:41.995905 55647 net.cpp:150] Setting up res2a_branch2a
I0616 20:17:41.995909 55647 net.cpp:157] Top shape: 4 64 80 80 (1638400)
I0616 20:17:41.995911 55647 net.cpp:165] Memory required for data: 250597856
I0616 20:17:41.995914 55647 layer_factory.hpp:77] Creating layer bn2a_branch2a
I0616 20:17:41.995918 55647 net.cpp:100] Creating Layer bn2a_branch2a
I0616 20:17:41.995919 55647 net.cpp:434] bn2a_branch2a <- res2a_branch2a
I0616 20:17:41.995923 55647 net.cpp:395] bn2a_branch2a -> res2a_branch2a (in-place)
I0616 20:17:41.996021 55647 net.cpp:150] Setting up bn2a_branch2a
I0616 20:17:41.996024 55647 net.cpp:157] Top shape: 4 64 80 80 (1638400)
I0616 20:17:41.996027 55647 net.cpp:165] Memory required for data: 257151456
I0616 20:17:41.996031 55647 layer_factory.hpp:77] Creating layer scale2a_branch2a
I0616 20:17:41.996034 55647 net.cpp:100] Creating Layer scale2a_branch2a
I0616 20:17:41.996037 55647 net.cpp:434] scale2a_branch2a <- res2a_branch2a
I0616 20:17:41.996039 55647 net.cpp:395] scale2a_branch2a -> res2a_branch2a (in-place)
I0616 20:17:41.996060 55647 layer_factory.hpp:77] Creating layer scale2a_branch2a
I0616 20:17:41.996125 55647 net.cpp:150] Setting up scale2a_branch2a
I0616 20:17:41.996129 55647 net.cpp:157] Top shape: 4 64 80 80 (1638400)
I0616 20:17:41.996132 55647 net.cpp:165] Memory required for data: 263705056
I0616 20:17:41.996137 55647 layer_factory.hpp:77] Creating layer res2a_branch2a_relu
I0616 20:17:41.996141 55647 net.cpp:100] Creating Layer res2a_branch2a_relu
I0616 20:17:41.996143 55647 net.cpp:434] res2a_branch2a_relu <- res2a_branch2a
I0616 20:17:41.996146 55647 net.cpp:395] res2a_branch2a_relu -> res2a_branch2a (in-place)
I0616 20:17:41.996150 55647 net.cpp:150] Setting up res2a_branch2a_relu
I0616 20:17:41.996151 55647 net.cpp:157] Top shape: 4 64 80 80 (1638400)
I0616 20:17:41.996153 55647 net.cpp:165] Memory required for data: 270258656
I0616 20:17:41.996155 55647 layer_factory.hpp:77] Creating layer res2a_branch2b
I0616 20:17:41.996160 55647 net.cpp:100] Creating Layer res2a_branch2b
I0616 20:17:41.996161 55647 net.cpp:434] res2a_branch2b <- res2a_branch2a
I0616 20:17:41.996165 55647 net.cpp:408] res2a_branch2b -> res2a_branch2b
I0616 20:17:41.996462 55647 net.cpp:150] Setting up res2a_branch2b
I0616 20:17:41.996466 55647 net.cpp:157] Top shape: 4 64 80 80 (1638400)
I0616 20:17:41.996469 55647 net.cpp:165] Memory required for data: 276812256
I0616 20:17:41.996472 55647 layer_factory.hpp:77] Creating layer bn2a_branch2b
I0616 20:17:41.996476 55647 net.cpp:100] Creating Layer bn2a_branch2b
I0616 20:17:41.996481 55647 net.cpp:434] bn2a_branch2b <- res2a_branch2b
I0616 20:17:41.996492 55647 net.cpp:395] bn2a_branch2b -> res2a_branch2b (in-place)
I0616 20:17:41.996592 55647 net.cpp:150] Setting up bn2a_branch2b
I0616 20:17:41.996596 55647 net.cpp:157] Top shape: 4 64 80 80 (1638400)
I0616 20:17:41.996598 55647 net.cpp:165] Memory required for data: 283365856
I0616 20:17:41.996603 55647 layer_factory.hpp:77] Creating layer scale2a_branch2b
I0616 20:17:41.996606 55647 net.cpp:100] Creating Layer scale2a_branch2b
I0616 20:17:41.996608 55647 net.cpp:434] scale2a_branch2b <- res2a_branch2b
I0616 20:17:41.996611 55647 net.cpp:395] scale2a_branch2b -> res2a_branch2b (in-place)
I0616 20:17:41.996631 55647 layer_factory.hpp:77] Creating layer scale2a_branch2b
I0616 20:17:41.996693 55647 net.cpp:150] Setting up scale2a_branch2b
I0616 20:17:41.996696 55647 net.cpp:157] Top shape: 4 64 80 80 (1638400)
I0616 20:17:41.996699 55647 net.cpp:165] Memory required for data: 289919456
I0616 20:17:41.996702 55647 layer_factory.hpp:77] Creating layer res2a_branch2b_relu
I0616 20:17:41.996704 55647 net.cpp:100] Creating Layer res2a_branch2b_relu
I0616 20:17:41.996706 55647 net.cpp:434] res2a_branch2b_relu <- res2a_branch2b
I0616 20:17:41.996709 55647 net.cpp:395] res2a_branch2b_relu -> res2a_branch2b (in-place)
I0616 20:17:41.996712 55647 net.cpp:150] Setting up res2a_branch2b_relu
I0616 20:17:41.996716 55647 net.cpp:157] Top shape: 4 64 80 80 (1638400)
I0616 20:17:41.996718 55647 net.cpp:165] Memory required for data: 296473056
I0616 20:17:41.996719 55647 layer_factory.hpp:77] Creating layer res2a_branch2c
I0616 20:17:41.996724 55647 net.cpp:100] Creating Layer res2a_branch2c
I0616 20:17:41.996726 55647 net.cpp:434] res2a_branch2c <- res2a_branch2b
I0616 20:17:41.996729 55647 net.cpp:408] res2a_branch2c -> res2a_branch2c
I0616 20:17:41.996912 55647 net.cpp:150] Setting up res2a_branch2c
I0616 20:17:41.996917 55647 net.cpp:157] Top shape: 4 256 80 80 (6553600)
I0616 20:17:41.996919 55647 net.cpp:165] Memory required for data: 322687456
I0616 20:17:41.996922 55647 layer_factory.hpp:77] Creating layer bn2a_branch2c
I0616 20:17:41.996925 55647 net.cpp:100] Creating Layer bn2a_branch2c
I0616 20:17:41.996927 55647 net.cpp:434] bn2a_branch2c <- res2a_branch2c
I0616 20:17:41.996930 55647 net.cpp:395] bn2a_branch2c -> res2a_branch2c (in-place)
I0616 20:17:41.997025 55647 net.cpp:150] Setting up bn2a_branch2c
I0616 20:17:41.997030 55647 net.cpp:157] Top shape: 4 256 80 80 (6553600)
I0616 20:17:41.997032 55647 net.cpp:165] Memory required for data: 348901856
I0616 20:17:41.997036 55647 layer_factory.hpp:77] Creating layer scale2a_branch2c
I0616 20:17:41.997041 55647 net.cpp:100] Creating Layer scale2a_branch2c
I0616 20:17:41.997045 55647 net.cpp:434] scale2a_branch2c <- res2a_branch2c
I0616 20:17:41.997046 55647 net.cpp:395] scale2a_branch2c -> res2a_branch2c (in-place)
I0616 20:17:41.997066 55647 layer_factory.hpp:77] Creating layer scale2a_branch2c
I0616 20:17:41.997121 55647 net.cpp:150] Setting up scale2a_branch2c
I0616 20:17:41.997124 55647 net.cpp:157] Top shape: 4 256 80 80 (6553600)
I0616 20:17:41.997128 55647 net.cpp:165] Memory required for data: 375116256
I0616 20:17:41.997130 55647 layer_factory.hpp:77] Creating layer res2a
I0616 20:17:41.997138 55647 net.cpp:100] Creating Layer res2a
I0616 20:17:41.997141 55647 net.cpp:434] res2a <- res2a_branch1
I0616 20:17:41.997144 55647 net.cpp:434] res2a <- res2a_branch2c
I0616 20:17:41.997148 55647 net.cpp:408] res2a -> res2a
I0616 20:17:41.997156 55647 net.cpp:150] Setting up res2a
I0616 20:17:41.997160 55647 net.cpp:157] Top shape: 4 256 80 80 (6553600)
I0616 20:17:41.997164 55647 net.cpp:165] Memory required for data: 401330656
I0616 20:17:41.997166 55647 layer_factory.hpp:77] Creating layer res2a_relu
I0616 20:17:41.997169 55647 net.cpp:100] Creating Layer res2a_relu
I0616 20:17:41.997171 55647 net.cpp:434] res2a_relu <- res2a
I0616 20:17:41.997175 55647 net.cpp:395] res2a_relu -> res2a (in-place)
I0616 20:17:41.997179 55647 net.cpp:150] Setting up res2a_relu
I0616 20:17:41.997181 55647 net.cpp:157] Top shape: 4 256 80 80 (6553600)
I0616 20:17:41.997184 55647 net.cpp:165] Memory required for data: 427545056
I0616 20:17:41.997196 55647 layer_factory.hpp:77] Creating layer res2a_res2a_relu_0_split
I0616 20:17:41.997200 55647 net.cpp:100] Creating Layer res2a_res2a_relu_0_split
I0616 20:17:41.997203 55647 net.cpp:434] res2a_res2a_relu_0_split <- res2a
I0616 20:17:41.997206 55647 net.cpp:408] res2a_res2a_relu_0_split -> res2a_res2a_relu_0_split_0
I0616 20:17:41.997213 55647 net.cpp:408] res2a_res2a_relu_0_split -> res2a_res2a_relu_0_split_1
I0616 20:17:41.997234 55647 net.cpp:150] Setting up res2a_res2a_relu_0_split
I0616 20:17:41.997238 55647 net.cpp:157] Top shape: 4 256 80 80 (6553600)
I0616 20:17:41.997241 55647 net.cpp:157] Top shape: 4 256 80 80 (6553600)
I0616 20:17:41.997243 55647 net.cpp:165] Memory required for data: 479973856
I0616 20:17:41.997246 55647 layer_factory.hpp:77] Creating layer res2b_branch2a
I0616 20:17:41.997252 55647 net.cpp:100] Creating Layer res2b_branch2a
I0616 20:17:41.997256 55647 net.cpp:434] res2b_branch2a <- res2a_res2a_relu_0_split_0
I0616 20:17:41.997258 55647 net.cpp:408] res2b_branch2a -> res2b_branch2a
I0616 20:17:41.997458 55647 net.cpp:150] Setting up res2b_branch2a
I0616 20:17:41.997463 55647 net.cpp:157] Top shape: 4 64 80 80 (1638400)
I0616 20:17:41.997467 55647 net.cpp:165] Memory required for data: 486527456
I0616 20:17:41.997469 55647 layer_factory.hpp:77] Creating layer bn2b_branch2a
I0616 20:17:41.997473 55647 net.cpp:100] Creating Layer bn2b_branch2a
I0616 20:17:41.997475 55647 net.cpp:434] bn2b_branch2a <- res2b_branch2a
I0616 20:17:41.997478 55647 net.cpp:395] bn2b_branch2a -> res2b_branch2a (in-place)
I0616 20:17:41.997575 55647 net.cpp:150] Setting up bn2b_branch2a
I0616 20:17:41.997579 55647 net.cpp:157] Top shape: 4 64 80 80 (1638400)
I0616 20:17:41.997582 55647 net.cpp:165] Memory required for data: 493081056
I0616 20:17:41.997588 55647 layer_factory.hpp:77] Creating layer scale2b_branch2a
I0616 20:17:41.997592 55647 net.cpp:100] Creating Layer scale2b_branch2a
I0616 20:17:41.997594 55647 net.cpp:434] scale2b_branch2a <- res2b_branch2a
I0616 20:17:41.997597 55647 net.cpp:395] scale2b_branch2a -> res2b_branch2a (in-place)
I0616 20:17:41.997618 55647 layer_factory.hpp:77] Creating layer scale2b_branch2a
I0616 20:17:41.997687 55647 net.cpp:150] Setting up scale2b_branch2a
I0616 20:17:41.997691 55647 net.cpp:157] Top shape: 4 64 80 80 (1638400)
I0616 20:17:41.997694 55647 net.cpp:165] Memory required for data: 499634656
I0616 20:17:41.997697 55647 layer_factory.hpp:77] Creating layer res2b_branch2a_relu
I0616 20:17:41.997700 55647 net.cpp:100] Creating Layer res2b_branch2a_relu
I0616 20:17:41.997704 55647 net.cpp:434] res2b_branch2a_relu <- res2b_branch2a
I0616 20:17:41.997709 55647 net.cpp:395] res2b_branch2a_relu -> res2b_branch2a (in-place)
I0616 20:17:41.997712 55647 net.cpp:150] Setting up res2b_branch2a_relu
I0616 20:17:41.997714 55647 net.cpp:157] Top shape: 4 64 80 80 (1638400)
I0616 20:17:41.997717 55647 net.cpp:165] Memory required for data: 506188256
I0616 20:17:41.997720 55647 layer_factory.hpp:77] Creating layer res2b_branch2b
I0616 20:17:41.997725 55647 net.cpp:100] Creating Layer res2b_branch2b
I0616 20:17:41.997730 55647 net.cpp:434] res2b_branch2b <- res2b_branch2a
I0616 20:17:41.997735 55647 net.cpp:408] res2b_branch2b -> res2b_branch2b
I0616 20:17:41.998075 55647 net.cpp:150] Setting up res2b_branch2b
I0616 20:17:41.998081 55647 net.cpp:157] Top shape: 4 64 80 80 (1638400)
I0616 20:17:41.998085 55647 net.cpp:165] Memory required for data: 512741856
I0616 20:17:41.998087 55647 layer_factory.hpp:77] Creating layer bn2b_branch2b
I0616 20:17:41.998090 55647 net.cpp:100] Creating Layer bn2b_branch2b
I0616 20:17:41.998092 55647 net.cpp:434] bn2b_branch2b <- res2b_branch2b
I0616 20:17:41.998095 55647 net.cpp:395] bn2b_branch2b -> res2b_branch2b (in-place)
I0616 20:17:41.998194 55647 net.cpp:150] Setting up bn2b_branch2b
I0616 20:17:41.998198 55647 net.cpp:157] Top shape: 4 64 80 80 (1638400)
I0616 20:17:41.998199 55647 net.cpp:165] Memory required for data: 519295456
I0616 20:17:41.998203 55647 layer_factory.hpp:77] Creating layer scale2b_branch2b
I0616 20:17:41.998219 55647 net.cpp:100] Creating Layer scale2b_branch2b
I0616 20:17:41.998220 55647 net.cpp:434] scale2b_branch2b <- res2b_branch2b
I0616 20:17:41.998224 55647 net.cpp:395] scale2b_branch2b -> res2b_branch2b (in-place)
I0616 20:17:41.998246 55647 layer_factory.hpp:77] Creating layer scale2b_branch2b
I0616 20:17:41.998315 55647 net.cpp:150] Setting up scale2b_branch2b
I0616 20:17:41.998319 55647 net.cpp:157] Top shape: 4 64 80 80 (1638400)
I0616 20:17:41.998322 55647 net.cpp:165] Memory required for data: 525849056
I0616 20:17:41.998324 55647 layer_factory.hpp:77] Creating layer res2b_branch2b_relu
I0616 20:17:41.998328 55647 net.cpp:100] Creating Layer res2b_branch2b_relu
I0616 20:17:41.998330 55647 net.cpp:434] res2b_branch2b_relu <- res2b_branch2b
I0616 20:17:41.998333 55647 net.cpp:395] res2b_branch2b_relu -> res2b_branch2b (in-place)
I0616 20:17:41.998337 55647 net.cpp:150] Setting up res2b_branch2b_relu
I0616 20:17:41.998338 55647 net.cpp:157] Top shape: 4 64 80 80 (1638400)
I0616 20:17:41.998342 55647 net.cpp:165] Memory required for data: 532402656
I0616 20:17:41.998344 55647 layer_factory.hpp:77] Creating layer res2b_branch2c
I0616 20:17:41.998348 55647 net.cpp:100] Creating Layer res2b_branch2c
I0616 20:17:41.998353 55647 net.cpp:434] res2b_branch2c <- res2b_branch2b
I0616 20:17:41.998356 55647 net.cpp:408] res2b_branch2c -> res2b_branch2c
I0616 20:17:41.998553 55647 net.cpp:150] Setting up res2b_branch2c
I0616 20:17:41.998558 55647 net.cpp:157] Top shape: 4 256 80 80 (6553600)
I0616 20:17:41.998560 55647 net.cpp:165] Memory required for data: 558617056
I0616 20:17:41.998562 55647 layer_factory.hpp:77] Creating layer bn2b_branch2c
I0616 20:17:41.998566 55647 net.cpp:100] Creating Layer bn2b_branch2c
I0616 20:17:41.998569 55647 net.cpp:434] bn2b_branch2c <- res2b_branch2c
I0616 20:17:41.998571 55647 net.cpp:395] bn2b_branch2c -> res2b_branch2c (in-place)
I0616 20:17:41.998668 55647 net.cpp:150] Setting up bn2b_branch2c
I0616 20:17:41.998673 55647 net.cpp:157] Top shape: 4 256 80 80 (6553600)
I0616 20:17:41.998675 55647 net.cpp:165] Memory required for data: 584831456
I0616 20:17:41.998679 55647 layer_factory.hpp:77] Creating layer scale2b_branch2c
I0616 20:17:41.998683 55647 net.cpp:100] Creating Layer scale2b_branch2c
I0616 20:17:41.998685 55647 net.cpp:434] scale2b_branch2c <- res2b_branch2c
I0616 20:17:41.998687 55647 net.cpp:395] scale2b_branch2c -> res2b_branch2c (in-place)
I0616 20:17:41.998713 55647 layer_factory.hpp:77] Creating layer scale2b_branch2c
I0616 20:17:41.998786 55647 net.cpp:150] Setting up scale2b_branch2c
I0616 20:17:41.998791 55647 net.cpp:157] Top shape: 4 256 80 80 (6553600)
I0616 20:17:41.998793 55647 net.cpp:165] Memory required for data: 611045856
I0616 20:17:41.998797 55647 layer_factory.hpp:77] Creating layer res2b
I0616 20:17:41.998800 55647 net.cpp:100] Creating Layer res2b
I0616 20:17:41.998802 55647 net.cpp:434] res2b <- res2a_res2a_relu_0_split_1
I0616 20:17:41.998805 55647 net.cpp:434] res2b <- res2b_branch2c
I0616 20:17:41.998808 55647 net.cpp:408] res2b -> res2b
I0616 20:17:41.998817 55647 net.cpp:150] Setting up res2b
I0616 20:17:41.998821 55647 net.cpp:157] Top shape: 4 256 80 80 (6553600)
I0616 20:17:41.998824 55647 net.cpp:165] Memory required for data: 637260256
I0616 20:17:41.998827 55647 layer_factory.hpp:77] Creating layer res2b_relu
I0616 20:17:41.998831 55647 net.cpp:100] Creating Layer res2b_relu
I0616 20:17:41.998833 55647 net.cpp:434] res2b_relu <- res2b
I0616 20:17:41.998836 55647 net.cpp:395] res2b_relu -> res2b (in-place)
I0616 20:17:41.998840 55647 net.cpp:150] Setting up res2b_relu
I0616 20:17:41.998842 55647 net.cpp:157] Top shape: 4 256 80 80 (6553600)
I0616 20:17:41.998847 55647 net.cpp:165] Memory required for data: 663474656
I0616 20:17:41.998848 55647 layer_factory.hpp:77] Creating layer res2b_res2b_relu_0_split
I0616 20:17:41.998852 55647 net.cpp:100] Creating Layer res2b_res2b_relu_0_split
I0616 20:17:41.998854 55647 net.cpp:434] res2b_res2b_relu_0_split <- res2b
I0616 20:17:41.998858 55647 net.cpp:408] res2b_res2b_relu_0_split -> res2b_res2b_relu_0_split_0
I0616 20:17:41.998876 55647 net.cpp:408] res2b_res2b_relu_0_split -> res2b_res2b_relu_0_split_1
I0616 20:17:41.998904 55647 net.cpp:150] Setting up res2b_res2b_relu_0_split
I0616 20:17:41.998910 55647 net.cpp:157] Top shape: 4 256 80 80 (6553600)
I0616 20:17:41.998914 55647 net.cpp:157] Top shape: 4 256 80 80 (6553600)
I0616 20:17:41.998917 55647 net.cpp:165] Memory required for data: 715903456
I0616 20:17:41.998919 55647 layer_factory.hpp:77] Creating layer res2c_branch2a
I0616 20:17:41.998930 55647 net.cpp:100] Creating Layer res2c_branch2a
I0616 20:17:41.998936 55647 net.cpp:434] res2c_branch2a <- res2b_res2b_relu_0_split_0
I0616 20:17:41.998941 55647 net.cpp:408] res2c_branch2a -> res2c_branch2a
I0616 20:17:41.999132 55647 net.cpp:150] Setting up res2c_branch2a
I0616 20:17:41.999136 55647 net.cpp:157] Top shape: 4 64 80 80 (1638400)
I0616 20:17:41.999140 55647 net.cpp:165] Memory required for data: 722457056
I0616 20:17:41.999142 55647 layer_factory.hpp:77] Creating layer bn2c_branch2a
I0616 20:17:41.999146 55647 net.cpp:100] Creating Layer bn2c_branch2a
I0616 20:17:41.999150 55647 net.cpp:434] bn2c_branch2a <- res2c_branch2a
I0616 20:17:41.999153 55647 net.cpp:395] bn2c_branch2a -> res2c_branch2a (in-place)
I0616 20:17:41.999647 55647 net.cpp:150] Setting up bn2c_branch2a
I0616 20:17:41.999651 55647 net.cpp:157] Top shape: 4 64 80 80 (1638400)
I0616 20:17:41.999653 55647 net.cpp:165] Memory required for data: 729010656
I0616 20:17:41.999657 55647 layer_factory.hpp:77] Creating layer scale2c_branch2a
I0616 20:17:41.999662 55647 net.cpp:100] Creating Layer scale2c_branch2a
I0616 20:17:41.999665 55647 net.cpp:434] scale2c_branch2a <- res2c_branch2a
I0616 20:17:41.999670 55647 net.cpp:395] scale2c_branch2a -> res2c_branch2a (in-place)
I0616 20:17:41.999696 55647 layer_factory.hpp:77] Creating layer scale2c_branch2a
I0616 20:17:41.999768 55647 net.cpp:150] Setting up scale2c_branch2a
I0616 20:17:41.999773 55647 net.cpp:157] Top shape: 4 64 80 80 (1638400)
I0616 20:17:41.999775 55647 net.cpp:165] Memory required for data: 735564256
I0616 20:17:41.999778 55647 layer_factory.hpp:77] Creating layer res2c_branch2a_relu
I0616 20:17:41.999781 55647 net.cpp:100] Creating Layer res2c_branch2a_relu
I0616 20:17:41.999784 55647 net.cpp:434] res2c_branch2a_relu <- res2c_branch2a
I0616 20:17:41.999788 55647 net.cpp:395] res2c_branch2a_relu -> res2c_branch2a (in-place)
I0616 20:17:41.999791 55647 net.cpp:150] Setting up res2c_branch2a_relu
I0616 20:17:41.999794 55647 net.cpp:157] Top shape: 4 64 80 80 (1638400)
I0616 20:17:41.999797 55647 net.cpp:165] Memory required for data: 742117856
I0616 20:17:41.999800 55647 layer_factory.hpp:77] Creating layer res2c_branch2b
I0616 20:17:41.999805 55647 net.cpp:100] Creating Layer res2c_branch2b
I0616 20:17:41.999807 55647 net.cpp:434] res2c_branch2b <- res2c_branch2a
I0616 20:17:41.999811 55647 net.cpp:408] res2c_branch2b -> res2c_branch2b
I0616 20:17:42.000155 55647 net.cpp:150] Setting up res2c_branch2b
I0616 20:17:42.000164 55647 net.cpp:157] Top shape: 4 64 80 80 (1638400)
I0616 20:17:42.000167 55647 net.cpp:165] Memory required for data: 748671456
I0616 20:17:42.000176 55647 layer_factory.hpp:77] Creating layer bn2c_branch2b
I0616 20:17:42.000185 55647 net.cpp:100] Creating Layer bn2c_branch2b
I0616 20:17:42.000188 55647 net.cpp:434] bn2c_branch2b <- res2c_branch2b
I0616 20:17:42.000192 55647 net.cpp:395] bn2c_branch2b -> res2c_branch2b (in-place)
I0616 20:17:42.000300 55647 net.cpp:150] Setting up bn2c_branch2b
I0616 20:17:42.000308 55647 net.cpp:157] Top shape: 4 64 80 80 (1638400)
I0616 20:17:42.000313 55647 net.cpp:165] Memory required for data: 755225056
I0616 20:17:42.000319 55647 layer_factory.hpp:77] Creating layer scale2c_branch2b
I0616 20:17:42.000329 55647 net.cpp:100] Creating Layer scale2c_branch2b
I0616 20:17:42.000334 55647 net.cpp:434] scale2c_branch2b <- res2c_branch2b
I0616 20:17:42.000339 55647 net.cpp:395] scale2c_branch2b -> res2c_branch2b (in-place)
I0616 20:17:42.000365 55647 layer_factory.hpp:77] Creating layer scale2c_branch2b
I0616 20:17:42.000442 55647 net.cpp:150] Setting up scale2c_branch2b
I0616 20:17:42.000445 55647 net.cpp:157] Top shape: 4 64 80 80 (1638400)
I0616 20:17:42.000449 55647 net.cpp:165] Memory required for data: 761778656
I0616 20:17:42.000453 55647 layer_factory.hpp:77] Creating layer res2c_branch2b_relu
I0616 20:17:42.000456 55647 net.cpp:100] Creating Layer res2c_branch2b_relu
I0616 20:17:42.000463 55647 net.cpp:434] res2c_branch2b_relu <- res2c_branch2b
I0616 20:17:42.000471 55647 net.cpp:395] res2c_branch2b_relu -> res2c_branch2b (in-place)
I0616 20:17:42.000481 55647 net.cpp:150] Setting up res2c_branch2b_relu
I0616 20:17:42.000485 55647 net.cpp:157] Top shape: 4 64 80 80 (1638400)
I0616 20:17:42.000489 55647 net.cpp:165] Memory required for data: 768332256
I0616 20:17:42.000492 55647 layer_factory.hpp:77] Creating layer res2c_branch2c
I0616 20:17:42.000497 55647 net.cpp:100] Creating Layer res2c_branch2c
I0616 20:17:42.000499 55647 net.cpp:434] res2c_branch2c <- res2c_branch2b
I0616 20:17:42.000504 55647 net.cpp:408] res2c_branch2c -> res2c_branch2c
I0616 20:17:42.001430 55647 net.cpp:150] Setting up res2c_branch2c
I0616 20:17:42.001437 55647 net.cpp:157] Top shape: 4 256 80 80 (6553600)
I0616 20:17:42.001441 55647 net.cpp:165] Memory required for data: 794546656
I0616 20:17:42.001448 55647 layer_factory.hpp:77] Creating layer bn2c_branch2c
I0616 20:17:42.001456 55647 net.cpp:100] Creating Layer bn2c_branch2c
I0616 20:17:42.001461 55647 net.cpp:434] bn2c_branch2c <- res2c_branch2c
I0616 20:17:42.001466 55647 net.cpp:395] bn2c_branch2c -> res2c_branch2c (in-place)
I0616 20:17:42.001570 55647 net.cpp:150] Setting up bn2c_branch2c
I0616 20:17:42.001579 55647 net.cpp:157] Top shape: 4 256 80 80 (6553600)
I0616 20:17:42.001581 55647 net.cpp:165] Memory required for data: 820761056
I0616 20:17:42.001587 55647 layer_factory.hpp:77] Creating layer scale2c_branch2c
I0616 20:17:42.001592 55647 net.cpp:100] Creating Layer scale2c_branch2c
I0616 20:17:42.001595 55647 net.cpp:434] scale2c_branch2c <- res2c_branch2c
I0616 20:17:42.001598 55647 net.cpp:395] scale2c_branch2c -> res2c_branch2c (in-place)
I0616 20:17:42.001619 55647 layer_factory.hpp:77] Creating layer scale2c_branch2c
I0616 20:17:42.001678 55647 net.cpp:150] Setting up scale2c_branch2c
I0616 20:17:42.001682 55647 net.cpp:157] Top shape: 4 256 80 80 (6553600)
I0616 20:17:42.001684 55647 net.cpp:165] Memory required for data: 846975456
I0616 20:17:42.001689 55647 layer_factory.hpp:77] Creating layer res2c
I0616 20:17:42.001693 55647 net.cpp:100] Creating Layer res2c
I0616 20:17:42.001696 55647 net.cpp:434] res2c <- res2b_res2b_relu_0_split_1
I0616 20:17:42.001698 55647 net.cpp:434] res2c <- res2c_branch2c
I0616 20:17:42.001703 55647 net.cpp:408] res2c -> res2c
I0616 20:17:42.001710 55647 net.cpp:150] Setting up res2c
I0616 20:17:42.001713 55647 net.cpp:157] Top shape: 4 256 80 80 (6553600)
I0616 20:17:42.001716 55647 net.cpp:165] Memory required for data: 873189856
I0616 20:17:42.001718 55647 layer_factory.hpp:77] Creating layer res2c_relu
I0616 20:17:42.001720 55647 net.cpp:100] Creating Layer res2c_relu
I0616 20:17:42.001722 55647 net.cpp:434] res2c_relu <- res2c
I0616 20:17:42.001725 55647 net.cpp:395] res2c_relu -> res2c (in-place)
I0616 20:17:42.001727 55647 net.cpp:150] Setting up res2c_relu
I0616 20:17:42.001729 55647 net.cpp:157] Top shape: 4 256 80 80 (6553600)
I0616 20:17:42.001732 55647 net.cpp:165] Memory required for data: 899404256
I0616 20:17:42.001734 55647 layer_factory.hpp:77] Creating layer res2c_res2c_relu_0_split
I0616 20:17:42.001737 55647 net.cpp:100] Creating Layer res2c_res2c_relu_0_split
I0616 20:17:42.001739 55647 net.cpp:434] res2c_res2c_relu_0_split <- res2c
I0616 20:17:42.001744 55647 net.cpp:408] res2c_res2c_relu_0_split -> res2c_res2c_relu_0_split_0
I0616 20:17:42.001747 55647 net.cpp:408] res2c_res2c_relu_0_split -> res2c_res2c_relu_0_split_1
I0616 20:17:42.001766 55647 net.cpp:150] Setting up res2c_res2c_relu_0_split
I0616 20:17:42.001771 55647 net.cpp:157] Top shape: 4 256 80 80 (6553600)
I0616 20:17:42.001775 55647 net.cpp:157] Top shape: 4 256 80 80 (6553600)
I0616 20:17:42.001788 55647 net.cpp:165] Memory required for data: 951833056
I0616 20:17:42.001791 55647 layer_factory.hpp:77] Creating layer res3a_branch1
I0616 20:17:42.001796 55647 net.cpp:100] Creating Layer res3a_branch1
I0616 20:17:42.001799 55647 net.cpp:434] res3a_branch1 <- res2c_res2c_relu_0_split_0
I0616 20:17:42.001803 55647 net.cpp:408] res3a_branch1 -> res3a_branch1
I0616 20:17:42.002650 55647 net.cpp:150] Setting up res3a_branch1
I0616 20:17:42.002656 55647 net.cpp:157] Top shape: 4 512 40 40 (3276800)
I0616 20:17:42.002658 55647 net.cpp:165] Memory required for data: 964940256
I0616 20:17:42.002662 55647 layer_factory.hpp:77] Creating layer bn3a_branch1
I0616 20:17:42.002665 55647 net.cpp:100] Creating Layer bn3a_branch1
I0616 20:17:42.002668 55647 net.cpp:434] bn3a_branch1 <- res3a_branch1
I0616 20:17:42.002671 55647 net.cpp:395] bn3a_branch1 -> res3a_branch1 (in-place)
I0616 20:17:42.002766 55647 net.cpp:150] Setting up bn3a_branch1
I0616 20:17:42.002773 55647 net.cpp:157] Top shape: 4 512 40 40 (3276800)
I0616 20:17:42.002774 55647 net.cpp:165] Memory required for data: 978047456
I0616 20:17:42.002779 55647 layer_factory.hpp:77] Creating layer scale3a_branch1
I0616 20:17:42.002781 55647 net.cpp:100] Creating Layer scale3a_branch1
I0616 20:17:42.002784 55647 net.cpp:434] scale3a_branch1 <- res3a_branch1
I0616 20:17:42.002786 55647 net.cpp:395] scale3a_branch1 -> res3a_branch1 (in-place)
I0616 20:17:42.002804 55647 layer_factory.hpp:77] Creating layer scale3a_branch1
I0616 20:17:42.002862 55647 net.cpp:150] Setting up scale3a_branch1
I0616 20:17:42.002866 55647 net.cpp:157] Top shape: 4 512 40 40 (3276800)
I0616 20:17:42.002869 55647 net.cpp:165] Memory required for data: 991154656
I0616 20:17:42.002873 55647 layer_factory.hpp:77] Creating layer res3a_branch2a
I0616 20:17:42.002877 55647 net.cpp:100] Creating Layer res3a_branch2a
I0616 20:17:42.002879 55647 net.cpp:434] res3a_branch2a <- res2c_res2c_relu_0_split_1
I0616 20:17:42.002883 55647 net.cpp:408] res3a_branch2a -> res3a_branch2a
I0616 20:17:42.003154 55647 net.cpp:150] Setting up res3a_branch2a
I0616 20:17:42.003159 55647 net.cpp:157] Top shape: 4 128 40 40 (819200)
I0616 20:17:42.003161 55647 net.cpp:165] Memory required for data: 994431456
I0616 20:17:42.003165 55647 layer_factory.hpp:77] Creating layer bn3a_branch2a
I0616 20:17:42.003168 55647 net.cpp:100] Creating Layer bn3a_branch2a
I0616 20:17:42.003173 55647 net.cpp:434] bn3a_branch2a <- res3a_branch2a
I0616 20:17:42.003176 55647 net.cpp:395] bn3a_branch2a -> res3a_branch2a (in-place)
I0616 20:17:42.003270 55647 net.cpp:150] Setting up bn3a_branch2a
I0616 20:17:42.003274 55647 net.cpp:157] Top shape: 4 128 40 40 (819200)
I0616 20:17:42.003278 55647 net.cpp:165] Memory required for data: 997708256
I0616 20:17:42.003281 55647 layer_factory.hpp:77] Creating layer scale3a_branch2a
I0616 20:17:42.003285 55647 net.cpp:100] Creating Layer scale3a_branch2a
I0616 20:17:42.003288 55647 net.cpp:434] scale3a_branch2a <- res3a_branch2a
I0616 20:17:42.003289 55647 net.cpp:395] scale3a_branch2a -> res3a_branch2a (in-place)
I0616 20:17:42.003311 55647 layer_factory.hpp:77] Creating layer scale3a_branch2a
I0616 20:17:42.003366 55647 net.cpp:150] Setting up scale3a_branch2a
I0616 20:17:42.003371 55647 net.cpp:157] Top shape: 4 128 40 40 (819200)
I0616 20:17:42.003372 55647 net.cpp:165] Memory required for data: 1000985056
I0616 20:17:42.003376 55647 layer_factory.hpp:77] Creating layer res3a_branch2a_relu
I0616 20:17:42.003379 55647 net.cpp:100] Creating Layer res3a_branch2a_relu
I0616 20:17:42.003382 55647 net.cpp:434] res3a_branch2a_relu <- res3a_branch2a
I0616 20:17:42.003386 55647 net.cpp:395] res3a_branch2a_relu -> res3a_branch2a (in-place)
I0616 20:17:42.003388 55647 net.cpp:150] Setting up res3a_branch2a_relu
I0616 20:17:42.003391 55647 net.cpp:157] Top shape: 4 128 40 40 (819200)
I0616 20:17:42.003393 55647 net.cpp:165] Memory required for data: 1004261856
I0616 20:17:42.003396 55647 layer_factory.hpp:77] Creating layer res3a_branch2b
I0616 20:17:42.003412 55647 net.cpp:100] Creating Layer res3a_branch2b
I0616 20:17:42.003414 55647 net.cpp:434] res3a_branch2b <- res3a_branch2a
I0616 20:17:42.003418 55647 net.cpp:408] res3a_branch2b -> res3a_branch2b
I0616 20:17:42.004348 55647 net.cpp:150] Setting up res3a_branch2b
I0616 20:17:42.004354 55647 net.cpp:157] Top shape: 4 128 40 40 (819200)
I0616 20:17:42.004357 55647 net.cpp:165] Memory required for data: 1007538656
I0616 20:17:42.004360 55647 layer_factory.hpp:77] Creating layer bn3a_branch2b
I0616 20:17:42.004364 55647 net.cpp:100] Creating Layer bn3a_branch2b
I0616 20:17:42.004367 55647 net.cpp:434] bn3a_branch2b <- res3a_branch2b
I0616 20:17:42.004371 55647 net.cpp:395] bn3a_branch2b -> res3a_branch2b (in-place)
I0616 20:17:42.004470 55647 net.cpp:150] Setting up bn3a_branch2b
I0616 20:17:42.004475 55647 net.cpp:157] Top shape: 4 128 40 40 (819200)
I0616 20:17:42.004478 55647 net.cpp:165] Memory required for data: 1010815456
I0616 20:17:42.004482 55647 layer_factory.hpp:77] Creating layer scale3a_branch2b
I0616 20:17:42.004492 55647 net.cpp:100] Creating Layer scale3a_branch2b
I0616 20:17:42.004494 55647 net.cpp:434] scale3a_branch2b <- res3a_branch2b
I0616 20:17:42.004498 55647 net.cpp:395] scale3a_branch2b -> res3a_branch2b (in-place)
I0616 20:17:42.004524 55647 layer_factory.hpp:77] Creating layer scale3a_branch2b
I0616 20:17:42.004581 55647 net.cpp:150] Setting up scale3a_branch2b
I0616 20:17:42.004587 55647 net.cpp:157] Top shape: 4 128 40 40 (819200)
I0616 20:17:42.004590 55647 net.cpp:165] Memory required for data: 1014092256
I0616 20:17:42.004592 55647 layer_factory.hpp:77] Creating layer res3a_branch2b_relu
I0616 20:17:42.004595 55647 net.cpp:100] Creating Layer res3a_branch2b_relu
I0616 20:17:42.004598 55647 net.cpp:434] res3a_branch2b_relu <- res3a_branch2b
I0616 20:17:42.004604 55647 net.cpp:395] res3a_branch2b_relu -> res3a_branch2b (in-place)
I0616 20:17:42.004612 55647 net.cpp:150] Setting up res3a_branch2b_relu
I0616 20:17:42.004614 55647 net.cpp:157] Top shape: 4 128 40 40 (819200)
I0616 20:17:42.004618 55647 net.cpp:165] Memory required for data: 1017369056
I0616 20:17:42.004621 55647 layer_factory.hpp:77] Creating layer res3a_branch2c
I0616 20:17:42.004628 55647 net.cpp:100] Creating Layer res3a_branch2c
I0616 20:17:42.004631 55647 net.cpp:434] res3a_branch2c <- res3a_branch2b
I0616 20:17:42.004635 55647 net.cpp:408] res3a_branch2c -> res3a_branch2c
I0616 20:17:42.005105 55647 net.cpp:150] Setting up res3a_branch2c
I0616 20:17:42.005112 55647 net.cpp:157] Top shape: 4 512 40 40 (3276800)
I0616 20:17:42.005116 55647 net.cpp:165] Memory required for data: 1030476256
I0616 20:17:42.005125 55647 layer_factory.hpp:77] Creating layer bn3a_branch2c
I0616 20:17:42.005132 55647 net.cpp:100] Creating Layer bn3a_branch2c
I0616 20:17:42.005139 55647 net.cpp:434] bn3a_branch2c <- res3a_branch2c
I0616 20:17:42.005142 55647 net.cpp:395] bn3a_branch2c -> res3a_branch2c (in-place)
I0616 20:17:42.005249 55647 net.cpp:150] Setting up bn3a_branch2c
I0616 20:17:42.005256 55647 net.cpp:157] Top shape: 4 512 40 40 (3276800)
I0616 20:17:42.005259 55647 net.cpp:165] Memory required for data: 1043583456
I0616 20:17:42.005267 55647 layer_factory.hpp:77] Creating layer scale3a_branch2c
I0616 20:17:42.005276 55647 net.cpp:100] Creating Layer scale3a_branch2c
I0616 20:17:42.005285 55647 net.cpp:434] scale3a_branch2c <- res3a_branch2c
I0616 20:17:42.005288 55647 net.cpp:395] scale3a_branch2c -> res3a_branch2c (in-place)
I0616 20:17:42.005322 55647 layer_factory.hpp:77] Creating layer scale3a_branch2c
I0616 20:17:42.005410 55647 net.cpp:150] Setting up scale3a_branch2c
I0616 20:17:42.005419 55647 net.cpp:157] Top shape: 4 512 40 40 (3276800)
I0616 20:17:42.005421 55647 net.cpp:165] Memory required for data: 1056690656
I0616 20:17:42.005426 55647 layer_factory.hpp:77] Creating layer res3a
I0616 20:17:42.005435 55647 net.cpp:100] Creating Layer res3a
I0616 20:17:42.005439 55647 net.cpp:434] res3a <- res3a_branch1
I0616 20:17:42.005442 55647 net.cpp:434] res3a <- res3a_branch2c
I0616 20:17:42.005445 55647 net.cpp:408] res3a -> res3a
I0616 20:17:42.005477 55647 net.cpp:150] Setting up res3a
I0616 20:17:42.005484 55647 net.cpp:157] Top shape: 4 512 40 40 (3276800)
I0616 20:17:42.005489 55647 net.cpp:165] Memory required for data: 1069797856
I0616 20:17:42.005492 55647 layer_factory.hpp:77] Creating layer res3a_relu
I0616 20:17:42.005496 55647 net.cpp:100] Creating Layer res3a_relu
I0616 20:17:42.005503 55647 net.cpp:434] res3a_relu <- res3a
I0616 20:17:42.005506 55647 net.cpp:395] res3a_relu -> res3a (in-place)
I0616 20:17:42.005509 55647 net.cpp:150] Setting up res3a_relu
I0616 20:17:42.005511 55647 net.cpp:157] Top shape: 4 512 40 40 (3276800)
I0616 20:17:42.005513 55647 net.cpp:165] Memory required for data: 1082905056
I0616 20:17:42.005515 55647 layer_factory.hpp:77] Creating layer res3a_res3a_relu_0_split
I0616 20:17:42.005519 55647 net.cpp:100] Creating Layer res3a_res3a_relu_0_split
I0616 20:17:42.005522 55647 net.cpp:434] res3a_res3a_relu_0_split <- res3a
I0616 20:17:42.005525 55647 net.cpp:408] res3a_res3a_relu_0_split -> res3a_res3a_relu_0_split_0
I0616 20:17:42.005529 55647 net.cpp:408] res3a_res3a_relu_0_split -> res3a_res3a_relu_0_split_1
I0616 20:17:42.005549 55647 net.cpp:150] Setting up res3a_res3a_relu_0_split
I0616 20:17:42.005554 55647 net.cpp:157] Top shape: 4 512 40 40 (3276800)
I0616 20:17:42.005558 55647 net.cpp:157] Top shape: 4 512 40 40 (3276800)
I0616 20:17:42.005560 55647 net.cpp:165] Memory required for data: 1109119456
I0616 20:17:42.005563 55647 layer_factory.hpp:77] Creating layer res3b1_branch2a
I0616 20:17:42.005568 55647 net.cpp:100] Creating Layer res3b1_branch2a
I0616 20:17:42.005573 55647 net.cpp:434] res3b1_branch2a <- res3a_res3a_relu_0_split_0
I0616 20:17:42.005576 55647 net.cpp:408] res3b1_branch2a -> res3b1_branch2a
I0616 20:17:42.006065 55647 net.cpp:150] Setting up res3b1_branch2a
I0616 20:17:42.006070 55647 net.cpp:157] Top shape: 4 128 40 40 (819200)
I0616 20:17:42.006074 55647 net.cpp:165] Memory required for data: 1112396256
I0616 20:17:42.006078 55647 layer_factory.hpp:77] Creating layer bn3b1_branch2a
I0616 20:17:42.006081 55647 net.cpp:100] Creating Layer bn3b1_branch2a
I0616 20:17:42.006084 55647 net.cpp:434] bn3b1_branch2a <- res3b1_branch2a
I0616 20:17:42.006088 55647 net.cpp:395] bn3b1_branch2a -> res3b1_branch2a (in-place)
I0616 20:17:42.006191 55647 net.cpp:150] Setting up bn3b1_branch2a
I0616 20:17:42.006194 55647 net.cpp:157] Top shape: 4 128 40 40 (819200)
I0616 20:17:42.006197 55647 net.cpp:165] Memory required for data: 1115673056
I0616 20:17:42.006201 55647 layer_factory.hpp:77] Creating layer scale3b1_branch2a
I0616 20:17:42.006206 55647 net.cpp:100] Creating Layer scale3b1_branch2a
I0616 20:17:42.006207 55647 net.cpp:434] scale3b1_branch2a <- res3b1_branch2a
I0616 20:17:42.006211 55647 net.cpp:395] scale3b1_branch2a -> res3b1_branch2a (in-place)
I0616 20:17:42.006228 55647 layer_factory.hpp:77] Creating layer scale3b1_branch2a
I0616 20:17:42.006283 55647 net.cpp:150] Setting up scale3b1_branch2a
I0616 20:17:42.006285 55647 net.cpp:157] Top shape: 4 128 40 40 (819200)
I0616 20:17:42.006289 55647 net.cpp:165] Memory required for data: 1118949856
I0616 20:17:42.006291 55647 layer_factory.hpp:77] Creating layer res3b1_branch2a_relu
I0616 20:17:42.006294 55647 net.cpp:100] Creating Layer res3b1_branch2a_relu
I0616 20:17:42.006296 55647 net.cpp:434] res3b1_branch2a_relu <- res3b1_branch2a
I0616 20:17:42.006300 55647 net.cpp:395] res3b1_branch2a_relu -> res3b1_branch2a (in-place)
I0616 20:17:42.006307 55647 net.cpp:150] Setting up res3b1_branch2a_relu
I0616 20:17:42.006309 55647 net.cpp:157] Top shape: 4 128 40 40 (819200)
I0616 20:17:42.006312 55647 net.cpp:165] Memory required for data: 1122226656
I0616 20:17:42.006314 55647 layer_factory.hpp:77] Creating layer res3b1_branch2b
I0616 20:17:42.006319 55647 net.cpp:100] Creating Layer res3b1_branch2b
I0616 20:17:42.006320 55647 net.cpp:434] res3b1_branch2b <- res3b1_branch2a
I0616 20:17:42.006323 55647 net.cpp:408] res3b1_branch2b -> res3b1_branch2b
I0616 20:17:42.007928 55647 net.cpp:150] Setting up res3b1_branch2b
I0616 20:17:42.007936 55647 net.cpp:157] Top shape: 4 128 40 40 (819200)
I0616 20:17:42.007949 55647 net.cpp:165] Memory required for data: 1125503456
I0616 20:17:42.007953 55647 layer_factory.hpp:77] Creating layer bn3b1_branch2b
I0616 20:17:42.007957 55647 net.cpp:100] Creating Layer bn3b1_branch2b
I0616 20:17:42.007964 55647 net.cpp:434] bn3b1_branch2b <- res3b1_branch2b
I0616 20:17:42.007969 55647 net.cpp:395] bn3b1_branch2b -> res3b1_branch2b (in-place)
I0616 20:17:42.008071 55647 net.cpp:150] Setting up bn3b1_branch2b
I0616 20:17:42.008075 55647 net.cpp:157] Top shape: 4 128 40 40 (819200)
I0616 20:17:42.008078 55647 net.cpp:165] Memory required for data: 1128780256
I0616 20:17:42.008082 55647 layer_factory.hpp:77] Creating layer scale3b1_branch2b
I0616 20:17:42.008086 55647 net.cpp:100] Creating Layer scale3b1_branch2b
I0616 20:17:42.008088 55647 net.cpp:434] scale3b1_branch2b <- res3b1_branch2b
I0616 20:17:42.008091 55647 net.cpp:395] scale3b1_branch2b -> res3b1_branch2b (in-place)
I0616 20:17:42.008113 55647 layer_factory.hpp:77] Creating layer scale3b1_branch2b
I0616 20:17:42.008191 55647 net.cpp:150] Setting up scale3b1_branch2b
I0616 20:17:42.008201 55647 net.cpp:157] Top shape: 4 128 40 40 (819200)
I0616 20:17:42.008208 55647 net.cpp:165] Memory required for data: 1132057056
I0616 20:17:42.008213 55647 layer_factory.hpp:77] Creating layer res3b1_branch2b_relu
I0616 20:17:42.008219 55647 net.cpp:100] Creating Layer res3b1_branch2b_relu
I0616 20:17:42.008224 55647 net.cpp:434] res3b1_branch2b_relu <- res3b1_branch2b
I0616 20:17:42.008229 55647 net.cpp:395] res3b1_branch2b_relu -> res3b1_branch2b (in-place)
I0616 20:17:42.008234 55647 net.cpp:150] Setting up res3b1_branch2b_relu
I0616 20:17:42.008237 55647 net.cpp:157] Top shape: 4 128 40 40 (819200)
I0616 20:17:42.008241 55647 net.cpp:165] Memory required for data: 1135333856
I0616 20:17:42.008244 55647 layer_factory.hpp:77] Creating layer res3b1_branch2c
I0616 20:17:42.008252 55647 net.cpp:100] Creating Layer res3b1_branch2c
I0616 20:17:42.008260 55647 net.cpp:434] res3b1_branch2c <- res3b1_branch2b
I0616 20:17:42.008265 55647 net.cpp:408] res3b1_branch2c -> res3b1_branch2c
I0616 20:17:42.008744 55647 net.cpp:150] Setting up res3b1_branch2c
I0616 20:17:42.008752 55647 net.cpp:157] Top shape: 4 512 40 40 (3276800)
I0616 20:17:42.008760 55647 net.cpp:165] Memory required for data: 1148441056
I0616 20:17:42.008765 55647 layer_factory.hpp:77] Creating layer bn3b1_branch2c
I0616 20:17:42.008772 55647 net.cpp:100] Creating Layer bn3b1_branch2c
I0616 20:17:42.008780 55647 net.cpp:434] bn3b1_branch2c <- res3b1_branch2c
I0616 20:17:42.008790 55647 net.cpp:395] bn3b1_branch2c -> res3b1_branch2c (in-place)
I0616 20:17:42.008891 55647 net.cpp:150] Setting up bn3b1_branch2c
I0616 20:17:42.008898 55647 net.cpp:157] Top shape: 4 512 40 40 (3276800)
I0616 20:17:42.008901 55647 net.cpp:165] Memory required for data: 1161548256
I0616 20:17:42.008909 55647 layer_factory.hpp:77] Creating layer scale3b1_branch2c
I0616 20:17:42.008916 55647 net.cpp:100] Creating Layer scale3b1_branch2c
I0616 20:17:42.008919 55647 net.cpp:434] scale3b1_branch2c <- res3b1_branch2c
I0616 20:17:42.008924 55647 net.cpp:395] scale3b1_branch2c -> res3b1_branch2c (in-place)
I0616 20:17:42.008946 55647 layer_factory.hpp:77] Creating layer scale3b1_branch2c
I0616 20:17:42.009016 55647 net.cpp:150] Setting up scale3b1_branch2c
I0616 20:17:42.009023 55647 net.cpp:157] Top shape: 4 512 40 40 (3276800)
I0616 20:17:42.009027 55647 net.cpp:165] Memory required for data: 1174655456
I0616 20:17:42.009030 55647 layer_factory.hpp:77] Creating layer res3b1
I0616 20:17:42.009034 55647 net.cpp:100] Creating Layer res3b1
I0616 20:17:42.009037 55647 net.cpp:434] res3b1 <- res3a_res3a_relu_0_split_1
I0616 20:17:42.009039 55647 net.cpp:434] res3b1 <- res3b1_branch2c
I0616 20:17:42.009043 55647 net.cpp:408] res3b1 -> res3b1
I0616 20:17:42.009058 55647 net.cpp:150] Setting up res3b1
I0616 20:17:42.009063 55647 net.cpp:157] Top shape: 4 512 40 40 (3276800)
I0616 20:17:42.009066 55647 net.cpp:165] Memory required for data: 1187762656
I0616 20:17:42.009081 55647 layer_factory.hpp:77] Creating layer res3b1_relu
I0616 20:17:42.009085 55647 net.cpp:100] Creating Layer res3b1_relu
I0616 20:17:42.009088 55647 net.cpp:434] res3b1_relu <- res3b1
I0616 20:17:42.009091 55647 net.cpp:395] res3b1_relu -> res3b1 (in-place)
I0616 20:17:42.009094 55647 net.cpp:150] Setting up res3b1_relu
I0616 20:17:42.009096 55647 net.cpp:157] Top shape: 4 512 40 40 (3276800)
I0616 20:17:42.009099 55647 net.cpp:165] Memory required for data: 1200869856
I0616 20:17:42.009100 55647 layer_factory.hpp:77] Creating layer res3b1_res3b1_relu_0_split
I0616 20:17:42.009104 55647 net.cpp:100] Creating Layer res3b1_res3b1_relu_0_split
I0616 20:17:42.009107 55647 net.cpp:434] res3b1_res3b1_relu_0_split <- res3b1
I0616 20:17:42.009110 55647 net.cpp:408] res3b1_res3b1_relu_0_split -> res3b1_res3b1_relu_0_split_0
I0616 20:17:42.009115 55647 net.cpp:408] res3b1_res3b1_relu_0_split -> res3b1_res3b1_relu_0_split_1
I0616 20:17:42.009138 55647 net.cpp:150] Setting up res3b1_res3b1_relu_0_split
I0616 20:17:42.009142 55647 net.cpp:157] Top shape: 4 512 40 40 (3276800)
I0616 20:17:42.009145 55647 net.cpp:157] Top shape: 4 512 40 40 (3276800)
I0616 20:17:42.009147 55647 net.cpp:165] Memory required for data: 1227084256
I0616 20:17:42.009150 55647 layer_factory.hpp:77] Creating layer res3b2_branch2a
I0616 20:17:42.009155 55647 net.cpp:100] Creating Layer res3b2_branch2a
I0616 20:17:42.009160 55647 net.cpp:434] res3b2_branch2a <- res3b1_res3b1_relu_0_split_0
I0616 20:17:42.009163 55647 net.cpp:408] res3b2_branch2a -> res3b2_branch2a
I0616 20:17:42.009616 55647 net.cpp:150] Setting up res3b2_branch2a
I0616 20:17:42.009621 55647 net.cpp:157] Top shape: 4 128 40 40 (819200)
I0616 20:17:42.009624 55647 net.cpp:165] Memory required for data: 1230361056
I0616 20:17:42.009626 55647 layer_factory.hpp:77] Creating layer bn3b2_branch2a
I0616 20:17:42.009630 55647 net.cpp:100] Creating Layer bn3b2_branch2a
I0616 20:17:42.009636 55647 net.cpp:434] bn3b2_branch2a <- res3b2_branch2a
I0616 20:17:42.009639 55647 net.cpp:395] bn3b2_branch2a -> res3b2_branch2a (in-place)
I0616 20:17:42.009737 55647 net.cpp:150] Setting up bn3b2_branch2a
I0616 20:17:42.009742 55647 net.cpp:157] Top shape: 4 128 40 40 (819200)
I0616 20:17:42.009743 55647 net.cpp:165] Memory required for data: 1233637856
I0616 20:17:42.009747 55647 layer_factory.hpp:77] Creating layer scale3b2_branch2a
I0616 20:17:42.009753 55647 net.cpp:100] Creating Layer scale3b2_branch2a
I0616 20:17:42.009757 55647 net.cpp:434] scale3b2_branch2a <- res3b2_branch2a
I0616 20:17:42.009760 55647 net.cpp:395] scale3b2_branch2a -> res3b2_branch2a (in-place)
I0616 20:17:42.009784 55647 layer_factory.hpp:77] Creating layer scale3b2_branch2a
I0616 20:17:42.009840 55647 net.cpp:150] Setting up scale3b2_branch2a
I0616 20:17:42.009845 55647 net.cpp:157] Top shape: 4 128 40 40 (819200)
I0616 20:17:42.009848 55647 net.cpp:165] Memory required for data: 1236914656
I0616 20:17:42.009852 55647 layer_factory.hpp:77] Creating layer res3b2_branch2a_relu
I0616 20:17:42.009857 55647 net.cpp:100] Creating Layer res3b2_branch2a_relu
I0616 20:17:42.009861 55647 net.cpp:434] res3b2_branch2a_relu <- res3b2_branch2a
I0616 20:17:42.009865 55647 net.cpp:395] res3b2_branch2a_relu -> res3b2_branch2a (in-place)
I0616 20:17:42.009869 55647 net.cpp:150] Setting up res3b2_branch2a_relu
I0616 20:17:42.009871 55647 net.cpp:157] Top shape: 4 128 40 40 (819200)
I0616 20:17:42.009876 55647 net.cpp:165] Memory required for data: 1240191456
I0616 20:17:42.009877 55647 layer_factory.hpp:77] Creating layer res3b2_branch2b
I0616 20:17:42.009881 55647 net.cpp:100] Creating Layer res3b2_branch2b
I0616 20:17:42.009886 55647 net.cpp:434] res3b2_branch2b <- res3b2_branch2a
I0616 20:17:42.009891 55647 net.cpp:408] res3b2_branch2b -> res3b2_branch2b
I0616 20:17:42.010802 55647 net.cpp:150] Setting up res3b2_branch2b
I0616 20:17:42.010808 55647 net.cpp:157] Top shape: 4 128 40 40 (819200)
I0616 20:17:42.010812 55647 net.cpp:165] Memory required for data: 1243468256
I0616 20:17:42.010813 55647 layer_factory.hpp:77] Creating layer bn3b2_branch2b
I0616 20:17:42.010828 55647 net.cpp:100] Creating Layer bn3b2_branch2b
I0616 20:17:42.010831 55647 net.cpp:434] bn3b2_branch2b <- res3b2_branch2b
I0616 20:17:42.010834 55647 net.cpp:395] bn3b2_branch2b -> res3b2_branch2b (in-place)
I0616 20:17:42.010934 55647 net.cpp:150] Setting up bn3b2_branch2b
I0616 20:17:42.010937 55647 net.cpp:157] Top shape: 4 128 40 40 (819200)
I0616 20:17:42.010941 55647 net.cpp:165] Memory required for data: 1246745056
I0616 20:17:42.010946 55647 layer_factory.hpp:77] Creating layer scale3b2_branch2b
I0616 20:17:42.010952 55647 net.cpp:100] Creating Layer scale3b2_branch2b
I0616 20:17:42.010955 55647 net.cpp:434] scale3b2_branch2b <- res3b2_branch2b
I0616 20:17:42.010958 55647 net.cpp:395] scale3b2_branch2b -> res3b2_branch2b (in-place)
I0616 20:17:42.010982 55647 layer_factory.hpp:77] Creating layer scale3b2_branch2b
I0616 20:17:42.011041 55647 net.cpp:150] Setting up scale3b2_branch2b
I0616 20:17:42.011046 55647 net.cpp:157] Top shape: 4 128 40 40 (819200)
I0616 20:17:42.011049 55647 net.cpp:165] Memory required for data: 1250021856
I0616 20:17:42.011054 55647 layer_factory.hpp:77] Creating layer res3b2_branch2b_relu
I0616 20:17:42.011056 55647 net.cpp:100] Creating Layer res3b2_branch2b_relu
I0616 20:17:42.011059 55647 net.cpp:434] res3b2_branch2b_relu <- res3b2_branch2b
I0616 20:17:42.011061 55647 net.cpp:395] res3b2_branch2b_relu -> res3b2_branch2b (in-place)
I0616 20:17:42.011065 55647 net.cpp:150] Setting up res3b2_branch2b_relu
I0616 20:17:42.011066 55647 net.cpp:157] Top shape: 4 128 40 40 (819200)
I0616 20:17:42.011068 55647 net.cpp:165] Memory required for data: 1253298656
I0616 20:17:42.011070 55647 layer_factory.hpp:77] Creating layer res3b2_branch2c
I0616 20:17:42.011075 55647 net.cpp:100] Creating Layer res3b2_branch2c
I0616 20:17:42.011078 55647 net.cpp:434] res3b2_branch2c <- res3b2_branch2b
I0616 20:17:42.011082 55647 net.cpp:408] res3b2_branch2c -> res3b2_branch2c
I0616 20:17:42.012214 55647 net.cpp:150] Setting up res3b2_branch2c
I0616 20:17:42.012221 55647 net.cpp:157] Top shape: 4 512 40 40 (3276800)
I0616 20:17:42.012224 55647 net.cpp:165] Memory required for data: 1266405856
I0616 20:17:42.012228 55647 layer_factory.hpp:77] Creating layer bn3b2_branch2c
I0616 20:17:42.012233 55647 net.cpp:100] Creating Layer bn3b2_branch2c
I0616 20:17:42.012234 55647 net.cpp:434] bn3b2_branch2c <- res3b2_branch2c
I0616 20:17:42.012236 55647 net.cpp:395] bn3b2_branch2c -> res3b2_branch2c (in-place)
I0616 20:17:42.012332 55647 net.cpp:150] Setting up bn3b2_branch2c
I0616 20:17:42.012337 55647 net.cpp:157] Top shape: 4 512 40 40 (3276800)
I0616 20:17:42.012341 55647 net.cpp:165] Memory required for data: 1279513056
I0616 20:17:42.012346 55647 layer_factory.hpp:77] Creating layer scale3b2_branch2c
I0616 20:17:42.012352 55647 net.cpp:100] Creating Layer scale3b2_branch2c
I0616 20:17:42.012357 55647 net.cpp:434] scale3b2_branch2c <- res3b2_branch2c
I0616 20:17:42.012360 55647 net.cpp:395] scale3b2_branch2c -> res3b2_branch2c (in-place)
I0616 20:17:42.012382 55647 layer_factory.hpp:77] Creating layer scale3b2_branch2c
I0616 20:17:42.012446 55647 net.cpp:150] Setting up scale3b2_branch2c
I0616 20:17:42.012450 55647 net.cpp:157] Top shape: 4 512 40 40 (3276800)
I0616 20:17:42.012454 55647 net.cpp:165] Memory required for data: 1292620256
I0616 20:17:42.012456 55647 layer_factory.hpp:77] Creating layer res3b2
I0616 20:17:42.012460 55647 net.cpp:100] Creating Layer res3b2
I0616 20:17:42.012462 55647 net.cpp:434] res3b2 <- res3b1_res3b1_relu_0_split_1
I0616 20:17:42.012465 55647 net.cpp:434] res3b2 <- res3b2_branch2c
I0616 20:17:42.012468 55647 net.cpp:408] res3b2 -> res3b2
I0616 20:17:42.012482 55647 net.cpp:150] Setting up res3b2
I0616 20:17:42.012487 55647 net.cpp:157] Top shape: 4 512 40 40 (3276800)
I0616 20:17:42.012495 55647 net.cpp:165] Memory required for data: 1305727456
I0616 20:17:42.012497 55647 layer_factory.hpp:77] Creating layer res3b2_relu
I0616 20:17:42.012502 55647 net.cpp:100] Creating Layer res3b2_relu
I0616 20:17:42.012507 55647 net.cpp:434] res3b2_relu <- res3b2
I0616 20:17:42.012522 55647 net.cpp:395] res3b2_relu -> res3b2 (in-place)
I0616 20:17:42.012528 55647 net.cpp:150] Setting up res3b2_relu
I0616 20:17:42.012532 55647 net.cpp:157] Top shape: 4 512 40 40 (3276800)
I0616 20:17:42.012537 55647 net.cpp:165] Memory required for data: 1318834656
I0616 20:17:42.012539 55647 layer_factory.hpp:77] Creating layer res3b2_res3b2_relu_0_split
I0616 20:17:42.012543 55647 net.cpp:100] Creating Layer res3b2_res3b2_relu_0_split
I0616 20:17:42.012547 55647 net.cpp:434] res3b2_res3b2_relu_0_split <- res3b2
I0616 20:17:42.012552 55647 net.cpp:408] res3b2_res3b2_relu_0_split -> res3b2_res3b2_relu_0_split_0
I0616 20:17:42.012557 55647 net.cpp:408] res3b2_res3b2_relu_0_split -> res3b2_res3b2_relu_0_split_1
I0616 20:17:42.012580 55647 net.cpp:150] Setting up res3b2_res3b2_relu_0_split
I0616 20:17:42.012584 55647 net.cpp:157] Top shape: 4 512 40 40 (3276800)
I0616 20:17:42.012588 55647 net.cpp:157] Top shape: 4 512 40 40 (3276800)
I0616 20:17:42.012593 55647 net.cpp:165] Memory required for data: 1345049056
I0616 20:17:42.012595 55647 layer_factory.hpp:77] Creating layer res3b3_branch2a
I0616 20:17:42.012603 55647 net.cpp:100] Creating Layer res3b3_branch2a
I0616 20:17:42.012606 55647 net.cpp:434] res3b3_branch2a <- res3b2_res3b2_relu_0_split_0
I0616 20:17:42.012614 55647 net.cpp:408] res3b3_branch2a -> res3b3_branch2a
I0616 20:17:42.013090 55647 net.cpp:150] Setting up res3b3_branch2a
I0616 20:17:42.013098 55647 net.cpp:157] Top shape: 4 128 40 40 (819200)
I0616 20:17:42.013103 55647 net.cpp:165] Memory required for data: 1348325856
I0616 20:17:42.013108 55647 layer_factory.hpp:77] Creating layer bn3b3_branch2a
I0616 20:17:42.013113 55647 net.cpp:100] Creating Layer bn3b3_branch2a
I0616 20:17:42.013116 55647 net.cpp:434] bn3b3_branch2a <- res3b3_branch2a
I0616 20:17:42.013123 55647 net.cpp:395] bn3b3_branch2a -> res3b3_branch2a (in-place)
I0616 20:17:42.013217 55647 net.cpp:150] Setting up bn3b3_branch2a
I0616 20:17:42.013221 55647 net.cpp:157] Top shape: 4 128 40 40 (819200)
I0616 20:17:42.013224 55647 net.cpp:165] Memory required for data: 1351602656
I0616 20:17:42.013233 55647 layer_factory.hpp:77] Creating layer scale3b3_branch2a
I0616 20:17:42.013239 55647 net.cpp:100] Creating Layer scale3b3_branch2a
I0616 20:17:42.013242 55647 net.cpp:434] scale3b3_branch2a <- res3b3_branch2a
I0616 20:17:42.013247 55647 net.cpp:395] scale3b3_branch2a -> res3b3_branch2a (in-place)
I0616 20:17:42.013270 55647 layer_factory.hpp:77] Creating layer scale3b3_branch2a
I0616 20:17:42.013327 55647 net.cpp:150] Setting up scale3b3_branch2a
I0616 20:17:42.013332 55647 net.cpp:157] Top shape: 4 128 40 40 (819200)
I0616 20:17:42.013335 55647 net.cpp:165] Memory required for data: 1354879456
I0616 20:17:42.013340 55647 layer_factory.hpp:77] Creating layer res3b3_branch2a_relu
I0616 20:17:42.013345 55647 net.cpp:100] Creating Layer res3b3_branch2a_relu
I0616 20:17:42.013347 55647 net.cpp:434] res3b3_branch2a_relu <- res3b3_branch2a
I0616 20:17:42.013351 55647 net.cpp:395] res3b3_branch2a_relu -> res3b3_branch2a (in-place)
I0616 20:17:42.013356 55647 net.cpp:150] Setting up res3b3_branch2a_relu
I0616 20:17:42.013358 55647 net.cpp:157] Top shape: 4 128 40 40 (819200)
I0616 20:17:42.013363 55647 net.cpp:165] Memory required for data: 1358156256
I0616 20:17:42.013366 55647 layer_factory.hpp:77] Creating layer res3b3_branch2b
I0616 20:17:42.013372 55647 net.cpp:100] Creating Layer res3b3_branch2b
I0616 20:17:42.013375 55647 net.cpp:434] res3b3_branch2b <- res3b3_branch2a
I0616 20:17:42.013379 55647 net.cpp:408] res3b3_branch2b -> res3b3_branch2b
I0616 20:17:42.014308 55647 net.cpp:150] Setting up res3b3_branch2b
I0616 20:17:42.014313 55647 net.cpp:157] Top shape: 4 128 40 40 (819200)
I0616 20:17:42.014317 55647 net.cpp:165] Memory required for data: 1361433056
I0616 20:17:42.014320 55647 layer_factory.hpp:77] Creating layer bn3b3_branch2b
I0616 20:17:42.014325 55647 net.cpp:100] Creating Layer bn3b3_branch2b
I0616 20:17:42.014329 55647 net.cpp:434] bn3b3_branch2b <- res3b3_branch2b
I0616 20:17:42.014334 55647 net.cpp:395] bn3b3_branch2b -> res3b3_branch2b (in-place)
I0616 20:17:42.014439 55647 net.cpp:150] Setting up bn3b3_branch2b
I0616 20:17:42.014444 55647 net.cpp:157] Top shape: 4 128 40 40 (819200)
I0616 20:17:42.014447 55647 net.cpp:165] Memory required for data: 1364709856
I0616 20:17:42.014453 55647 layer_factory.hpp:77] Creating layer scale3b3_branch2b
I0616 20:17:42.014458 55647 net.cpp:100] Creating Layer scale3b3_branch2b
I0616 20:17:42.014462 55647 net.cpp:434] scale3b3_branch2b <- res3b3_branch2b
I0616 20:17:42.014467 55647 net.cpp:395] scale3b3_branch2b -> res3b3_branch2b (in-place)
I0616 20:17:42.014490 55647 layer_factory.hpp:77] Creating layer scale3b3_branch2b
I0616 20:17:42.014545 55647 net.cpp:150] Setting up scale3b3_branch2b
I0616 20:17:42.014549 55647 net.cpp:157] Top shape: 4 128 40 40 (819200)
I0616 20:17:42.014552 55647 net.cpp:165] Memory required for data: 1367986656
I0616 20:17:42.014557 55647 layer_factory.hpp:77] Creating layer res3b3_branch2b_relu
I0616 20:17:42.014562 55647 net.cpp:100] Creating Layer res3b3_branch2b_relu
I0616 20:17:42.014566 55647 net.cpp:434] res3b3_branch2b_relu <- res3b3_branch2b
I0616 20:17:42.014571 55647 net.cpp:395] res3b3_branch2b_relu -> res3b3_branch2b (in-place)
I0616 20:17:42.014576 55647 net.cpp:150] Setting up res3b3_branch2b_relu
I0616 20:17:42.014580 55647 net.cpp:157] Top shape: 4 128 40 40 (819200)
I0616 20:17:42.014585 55647 net.cpp:165] Memory required for data: 1371263456
I0616 20:17:42.014586 55647 layer_factory.hpp:77] Creating layer res3b3_branch2c
I0616 20:17:42.014593 55647 net.cpp:100] Creating Layer res3b3_branch2c
I0616 20:17:42.014600 55647 net.cpp:434] res3b3_branch2c <- res3b3_branch2b
I0616 20:17:42.014611 55647 net.cpp:408] res3b3_branch2c -> res3b3_branch2c
I0616 20:17:42.015077 55647 net.cpp:150] Setting up res3b3_branch2c
I0616 20:17:42.015082 55647 net.cpp:157] Top shape: 4 512 40 40 (3276800)
I0616 20:17:42.015086 55647 net.cpp:165] Memory required for data: 1384370656
I0616 20:17:42.015090 55647 layer_factory.hpp:77] Creating layer bn3b3_branch2c
I0616 20:17:42.015095 55647 net.cpp:100] Creating Layer bn3b3_branch2c
I0616 20:17:42.015100 55647 net.cpp:434] bn3b3_branch2c <- res3b3_branch2c
I0616 20:17:42.015102 55647 net.cpp:395] bn3b3_branch2c -> res3b3_branch2c (in-place)
I0616 20:17:42.015198 55647 net.cpp:150] Setting up bn3b3_branch2c
I0616 20:17:42.015202 55647 net.cpp:157] Top shape: 4 512 40 40 (3276800)
I0616 20:17:42.015205 55647 net.cpp:165] Memory required for data: 1397477856
I0616 20:17:42.015210 55647 layer_factory.hpp:77] Creating layer scale3b3_branch2c
I0616 20:17:42.015216 55647 net.cpp:100] Creating Layer scale3b3_branch2c
I0616 20:17:42.015220 55647 net.cpp:434] scale3b3_branch2c <- res3b3_branch2c
I0616 20:17:42.015225 55647 net.cpp:395] scale3b3_branch2c -> res3b3_branch2c (in-place)
I0616 20:17:42.015251 55647 layer_factory.hpp:77] Creating layer scale3b3_branch2c
I0616 20:17:42.015311 55647 net.cpp:150] Setting up scale3b3_branch2c
I0616 20:17:42.015314 55647 net.cpp:157] Top shape: 4 512 40 40 (3276800)
I0616 20:17:42.015318 55647 net.cpp:165] Memory required for data: 1410585056
I0616 20:17:42.015323 55647 layer_factory.hpp:77] Creating layer res3b3
I0616 20:17:42.015327 55647 net.cpp:100] Creating Layer res3b3
I0616 20:17:42.015332 55647 net.cpp:434] res3b3 <- res3b2_res3b2_relu_0_split_1
I0616 20:17:42.015336 55647 net.cpp:434] res3b3 <- res3b3_branch2c
I0616 20:17:42.015339 55647 net.cpp:408] res3b3 -> res3b3
I0616 20:17:42.015354 55647 net.cpp:150] Setting up res3b3
I0616 20:17:42.015358 55647 net.cpp:157] Top shape: 4 512 40 40 (3276800)
I0616 20:17:42.015362 55647 net.cpp:165] Memory required for data: 1423692256
I0616 20:17:42.015364 55647 layer_factory.hpp:77] Creating layer res3b3_relu
I0616 20:17:42.015368 55647 net.cpp:100] Creating Layer res3b3_relu
I0616 20:17:42.015370 55647 net.cpp:434] res3b3_relu <- res3b3
I0616 20:17:42.015374 55647 net.cpp:395] res3b3_relu -> res3b3 (in-place)
I0616 20:17:42.015377 55647 net.cpp:150] Setting up res3b3_relu
I0616 20:17:42.015380 55647 net.cpp:157] Top shape: 4 512 40 40 (3276800)
I0616 20:17:42.015393 55647 net.cpp:165] Memory required for data: 1436799456
I0616 20:17:42.015396 55647 layer_factory.hpp:77] Creating layer res3b3_res3b3_relu_0_split
I0616 20:17:42.015400 55647 net.cpp:100] Creating Layer res3b3_res3b3_relu_0_split
I0616 20:17:42.015403 55647 net.cpp:434] res3b3_res3b3_relu_0_split <- res3b3
I0616 20:17:42.015408 55647 net.cpp:408] res3b3_res3b3_relu_0_split -> res3b3_res3b3_relu_0_split_0
I0616 20:17:42.015414 55647 net.cpp:408] res3b3_res3b3_relu_0_split -> res3b3_res3b3_relu_0_split_1
I0616 20:17:42.015419 55647 net.cpp:408] res3b3_res3b3_relu_0_split -> res3b3_res3b3_relu_0_split_2
I0616 20:17:42.015452 55647 net.cpp:150] Setting up res3b3_res3b3_relu_0_split
I0616 20:17:42.015460 55647 net.cpp:157] Top shape: 4 512 40 40 (3276800)
I0616 20:17:42.015462 55647 net.cpp:157] Top shape: 4 512 40 40 (3276800)
I0616 20:17:42.015465 55647 net.cpp:157] Top shape: 4 512 40 40 (3276800)
I0616 20:17:42.015467 55647 net.cpp:165] Memory required for data: 1476121056
I0616 20:17:42.015470 55647 layer_factory.hpp:77] Creating layer res4a_branch1
I0616 20:17:42.015475 55647 net.cpp:100] Creating Layer res4a_branch1
I0616 20:17:42.015478 55647 net.cpp:434] res4a_branch1 <- res3b3_res3b3_relu_0_split_0
I0616 20:17:42.015482 55647 net.cpp:408] res4a_branch1 -> res4a_branch1
I0616 20:17:42.019170 55647 net.cpp:150] Setting up res4a_branch1
I0616 20:17:42.019177 55647 net.cpp:157] Top shape: 4 1024 20 20 (1638400)
I0616 20:17:42.019181 55647 net.cpp:165] Memory required for data: 1482674656
I0616 20:17:42.019184 55647 layer_factory.hpp:77] Creating layer bn4a_branch1
I0616 20:17:42.019188 55647 net.cpp:100] Creating Layer bn4a_branch1
I0616 20:17:42.019191 55647 net.cpp:434] bn4a_branch1 <- res4a_branch1
I0616 20:17:42.019193 55647 net.cpp:395] bn4a_branch1 -> res4a_branch1 (in-place)
I0616 20:17:42.019292 55647 net.cpp:150] Setting up bn4a_branch1
I0616 20:17:42.019296 55647 net.cpp:157] Top shape: 4 1024 20 20 (1638400)
I0616 20:17:42.019299 55647 net.cpp:165] Memory required for data: 1489228256
I0616 20:17:42.019304 55647 layer_factory.hpp:77] Creating layer scale4a_branch1
I0616 20:17:42.019307 55647 net.cpp:100] Creating Layer scale4a_branch1
I0616 20:17:42.019311 55647 net.cpp:434] scale4a_branch1 <- res4a_branch1
I0616 20:17:42.019315 55647 net.cpp:395] scale4a_branch1 -> res4a_branch1 (in-place)
I0616 20:17:42.019335 55647 layer_factory.hpp:77] Creating layer scale4a_branch1
I0616 20:17:42.019392 55647 net.cpp:150] Setting up scale4a_branch1
I0616 20:17:42.019395 55647 net.cpp:157] Top shape: 4 1024 20 20 (1638400)
I0616 20:17:42.019398 55647 net.cpp:165] Memory required for data: 1495781856
I0616 20:17:42.019402 55647 layer_factory.hpp:77] Creating layer res4a_branch2a
I0616 20:17:42.019405 55647 net.cpp:100] Creating Layer res4a_branch2a
I0616 20:17:42.019408 55647 net.cpp:434] res4a_branch2a <- res3b3_res3b3_relu_0_split_1
I0616 20:17:42.019412 55647 net.cpp:408] res4a_branch2a -> res4a_branch2a
I0616 20:17:42.020256 55647 net.cpp:150] Setting up res4a_branch2a
I0616 20:17:42.020262 55647 net.cpp:157] Top shape: 4 256 20 20 (409600)
I0616 20:17:42.020264 55647 net.cpp:165] Memory required for data: 1497420256
I0616 20:17:42.020267 55647 layer_factory.hpp:77] Creating layer bn4a_branch2a
I0616 20:17:42.020270 55647 net.cpp:100] Creating Layer bn4a_branch2a
I0616 20:17:42.020272 55647 net.cpp:434] bn4a_branch2a <- res4a_branch2a
I0616 20:17:42.020274 55647 net.cpp:395] bn4a_branch2a -> res4a_branch2a (in-place)
I0616 20:17:42.020376 55647 net.cpp:150] Setting up bn4a_branch2a
I0616 20:17:42.020380 55647 net.cpp:157] Top shape: 4 256 20 20 (409600)
I0616 20:17:42.020382 55647 net.cpp:165] Memory required for data: 1499058656
I0616 20:17:42.020387 55647 layer_factory.hpp:77] Creating layer scale4a_branch2a
I0616 20:17:42.020391 55647 net.cpp:100] Creating Layer scale4a_branch2a
I0616 20:17:42.020395 55647 net.cpp:434] scale4a_branch2a <- res4a_branch2a
I0616 20:17:42.020397 55647 net.cpp:395] scale4a_branch2a -> res4a_branch2a (in-place)
I0616 20:17:42.020416 55647 layer_factory.hpp:77] Creating layer scale4a_branch2a
I0616 20:17:42.020480 55647 net.cpp:150] Setting up scale4a_branch2a
I0616 20:17:42.020484 55647 net.cpp:157] Top shape: 4 256 20 20 (409600)
I0616 20:17:42.020488 55647 net.cpp:165] Memory required for data: 1500697056
I0616 20:17:42.020490 55647 layer_factory.hpp:77] Creating layer res4a_branch2a_relu
I0616 20:17:42.020493 55647 net.cpp:100] Creating Layer res4a_branch2a_relu
I0616 20:17:42.020495 55647 net.cpp:434] res4a_branch2a_relu <- res4a_branch2a
I0616 20:17:42.020498 55647 net.cpp:395] res4a_branch2a_relu -> res4a_branch2a (in-place)
I0616 20:17:42.020503 55647 net.cpp:150] Setting up res4a_branch2a_relu
I0616 20:17:42.020503 55647 net.cpp:157] Top shape: 4 256 20 20 (409600)
I0616 20:17:42.020506 55647 net.cpp:165] Memory required for data: 1502335456
I0616 20:17:42.020509 55647 layer_factory.hpp:77] Creating layer res4a_branch2b
I0616 20:17:42.020511 55647 net.cpp:100] Creating Layer res4a_branch2b
I0616 20:17:42.020514 55647 net.cpp:434] res4a_branch2b <- res4a_branch2a
I0616 20:17:42.020517 55647 net.cpp:408] res4a_branch2b -> res4a_branch2b
I0616 20:17:42.024732 55647 net.cpp:150] Setting up res4a_branch2b
I0616 20:17:42.024740 55647 net.cpp:157] Top shape: 4 256 20 20 (409600)
I0616 20:17:42.024744 55647 net.cpp:165] Memory required for data: 1503973856
I0616 20:17:42.024746 55647 layer_factory.hpp:77] Creating layer bn4a_branch2b
I0616 20:17:42.024750 55647 net.cpp:100] Creating Layer bn4a_branch2b
I0616 20:17:42.024760 55647 net.cpp:434] bn4a_branch2b <- res4a_branch2b
I0616 20:17:42.024763 55647 net.cpp:395] bn4a_branch2b -> res4a_branch2b (in-place)
I0616 20:17:42.024861 55647 net.cpp:150] Setting up bn4a_branch2b
I0616 20:17:42.024865 55647 net.cpp:157] Top shape: 4 256 20 20 (409600)
I0616 20:17:42.024868 55647 net.cpp:165] Memory required for data: 1505612256
I0616 20:17:42.024871 55647 layer_factory.hpp:77] Creating layer scale4a_branch2b
I0616 20:17:42.024875 55647 net.cpp:100] Creating Layer scale4a_branch2b
I0616 20:17:42.024878 55647 net.cpp:434] scale4a_branch2b <- res4a_branch2b
I0616 20:17:42.024880 55647 net.cpp:395] scale4a_branch2b -> res4a_branch2b (in-place)
I0616 20:17:42.024900 55647 layer_factory.hpp:77] Creating layer scale4a_branch2b
I0616 20:17:42.024952 55647 net.cpp:150] Setting up scale4a_branch2b
I0616 20:17:42.024956 55647 net.cpp:157] Top shape: 4 256 20 20 (409600)
I0616 20:17:42.024960 55647 net.cpp:165] Memory required for data: 1507250656
I0616 20:17:42.024962 55647 layer_factory.hpp:77] Creating layer res4a_branch2b_relu
I0616 20:17:42.024966 55647 net.cpp:100] Creating Layer res4a_branch2b_relu
I0616 20:17:42.024967 55647 net.cpp:434] res4a_branch2b_relu <- res4a_branch2b
I0616 20:17:42.024971 55647 net.cpp:395] res4a_branch2b_relu -> res4a_branch2b (in-place)
I0616 20:17:42.024977 55647 net.cpp:150] Setting up res4a_branch2b_relu
I0616 20:17:42.024981 55647 net.cpp:157] Top shape: 4 256 20 20 (409600)
I0616 20:17:42.024983 55647 net.cpp:165] Memory required for data: 1508889056
I0616 20:17:42.024986 55647 layer_factory.hpp:77] Creating layer res4a_branch2c
I0616 20:17:42.024989 55647 net.cpp:100] Creating Layer res4a_branch2c
I0616 20:17:42.024993 55647 net.cpp:434] res4a_branch2c <- res4a_branch2b
I0616 20:17:42.024997 55647 net.cpp:408] res4a_branch2c -> res4a_branch2c
I0616 20:17:42.027256 55647 net.cpp:150] Setting up res4a_branch2c
I0616 20:17:42.027263 55647 net.cpp:157] Top shape: 4 1024 20 20 (1638400)
I0616 20:17:42.027266 55647 net.cpp:165] Memory required for data: 1515442656
I0616 20:17:42.027271 55647 layer_factory.hpp:77] Creating layer bn4a_branch2c
I0616 20:17:42.027273 55647 net.cpp:100] Creating Layer bn4a_branch2c
I0616 20:17:42.027276 55647 net.cpp:434] bn4a_branch2c <- res4a_branch2c
I0616 20:17:42.027279 55647 net.cpp:395] bn4a_branch2c -> res4a_branch2c (in-place)
I0616 20:17:42.027384 55647 net.cpp:150] Setting up bn4a_branch2c
I0616 20:17:42.027388 55647 net.cpp:157] Top shape: 4 1024 20 20 (1638400)
I0616 20:17:42.027392 55647 net.cpp:165] Memory required for data: 1521996256
I0616 20:17:42.027395 55647 layer_factory.hpp:77] Creating layer scale4a_branch2c
I0616 20:17:42.027411 55647 net.cpp:100] Creating Layer scale4a_branch2c
I0616 20:17:42.027413 55647 net.cpp:434] scale4a_branch2c <- res4a_branch2c
I0616 20:17:42.027417 55647 net.cpp:395] scale4a_branch2c -> res4a_branch2c (in-place)
I0616 20:17:42.027441 55647 layer_factory.hpp:77] Creating layer scale4a_branch2c
I0616 20:17:42.027513 55647 net.cpp:150] Setting up scale4a_branch2c
I0616 20:17:42.027521 55647 net.cpp:157] Top shape: 4 1024 20 20 (1638400)
I0616 20:17:42.027525 55647 net.cpp:165] Memory required for data: 1528549856
I0616 20:17:42.027530 55647 layer_factory.hpp:77] Creating layer res4a
I0616 20:17:42.027535 55647 net.cpp:100] Creating Layer res4a
I0616 20:17:42.027539 55647 net.cpp:434] res4a <- res4a_branch1
I0616 20:17:42.027542 55647 net.cpp:434] res4a <- res4a_branch2c
I0616 20:17:42.027547 55647 net.cpp:408] res4a -> res4a
I0616 20:17:42.027562 55647 net.cpp:150] Setting up res4a
I0616 20:17:42.027565 55647 net.cpp:157] Top shape: 4 1024 20 20 (1638400)
I0616 20:17:42.027570 55647 net.cpp:165] Memory required for data: 1535103456
I0616 20:17:42.027572 55647 layer_factory.hpp:77] Creating layer res4a_relu
I0616 20:17:42.027576 55647 net.cpp:100] Creating Layer res4a_relu
I0616 20:17:42.027578 55647 net.cpp:434] res4a_relu <- res4a
I0616 20:17:42.027582 55647 net.cpp:395] res4a_relu -> res4a (in-place)
I0616 20:17:42.027586 55647 net.cpp:150] Setting up res4a_relu
I0616 20:17:42.027588 55647 net.cpp:157] Top shape: 4 1024 20 20 (1638400)
I0616 20:17:42.027592 55647 net.cpp:165] Memory required for data: 1541657056
I0616 20:17:42.027595 55647 layer_factory.hpp:77] Creating layer res4a_res4a_relu_0_split
I0616 20:17:42.027602 55647 net.cpp:100] Creating Layer res4a_res4a_relu_0_split
I0616 20:17:42.027604 55647 net.cpp:434] res4a_res4a_relu_0_split <- res4a
I0616 20:17:42.027609 55647 net.cpp:408] res4a_res4a_relu_0_split -> res4a_res4a_relu_0_split_0
I0616 20:17:42.027613 55647 net.cpp:408] res4a_res4a_relu_0_split -> res4a_res4a_relu_0_split_1
I0616 20:17:42.027642 55647 net.cpp:150] Setting up res4a_res4a_relu_0_split
I0616 20:17:42.027644 55647 net.cpp:157] Top shape: 4 1024 20 20 (1638400)
I0616 20:17:42.027647 55647 net.cpp:157] Top shape: 4 1024 20 20 (1638400)
I0616 20:17:42.027652 55647 net.cpp:165] Memory required for data: 1554764256
I0616 20:17:42.027654 55647 layer_factory.hpp:77] Creating layer res4b1_branch2a
I0616 20:17:42.027662 55647 net.cpp:100] Creating Layer res4b1_branch2a
I0616 20:17:42.027664 55647 net.cpp:434] res4b1_branch2a <- res4a_res4a_relu_0_split_0
I0616 20:17:42.027668 55647 net.cpp:408] res4b1_branch2a -> res4b1_branch2a
I0616 20:17:42.029232 55647 net.cpp:150] Setting up res4b1_branch2a
I0616 20:17:42.029237 55647 net.cpp:157] Top shape: 4 256 20 20 (409600)
I0616 20:17:42.029240 55647 net.cpp:165] Memory required for data: 1556402656
I0616 20:17:42.029244 55647 layer_factory.hpp:77] Creating layer bn4b1_branch2a
I0616 20:17:42.029249 55647 net.cpp:100] Creating Layer bn4b1_branch2a
I0616 20:17:42.029253 55647 net.cpp:434] bn4b1_branch2a <- res4b1_branch2a
I0616 20:17:42.029255 55647 net.cpp:395] bn4b1_branch2a -> res4b1_branch2a (in-place)
I0616 20:17:42.029352 55647 net.cpp:150] Setting up bn4b1_branch2a
I0616 20:17:42.029357 55647 net.cpp:157] Top shape: 4 256 20 20 (409600)
I0616 20:17:42.029361 55647 net.cpp:165] Memory required for data: 1558041056
I0616 20:17:42.029364 55647 layer_factory.hpp:77] Creating layer scale4b1_branch2a
I0616 20:17:42.029369 55647 net.cpp:100] Creating Layer scale4b1_branch2a
I0616 20:17:42.029372 55647 net.cpp:434] scale4b1_branch2a <- res4b1_branch2a
I0616 20:17:42.029376 55647 net.cpp:395] scale4b1_branch2a -> res4b1_branch2a (in-place)
I0616 20:17:42.029402 55647 layer_factory.hpp:77] Creating layer scale4b1_branch2a
I0616 20:17:42.029474 55647 net.cpp:150] Setting up scale4b1_branch2a
I0616 20:17:42.029481 55647 net.cpp:157] Top shape: 4 256 20 20 (409600)
I0616 20:17:42.029484 55647 net.cpp:165] Memory required for data: 1559679456
I0616 20:17:42.029491 55647 layer_factory.hpp:77] Creating layer res4b1_branch2a_relu
I0616 20:17:42.029508 55647 net.cpp:100] Creating Layer res4b1_branch2a_relu
I0616 20:17:42.029512 55647 net.cpp:434] res4b1_branch2a_relu <- res4b1_branch2a
I0616 20:17:42.029516 55647 net.cpp:395] res4b1_branch2a_relu -> res4b1_branch2a (in-place)
I0616 20:17:42.029525 55647 net.cpp:150] Setting up res4b1_branch2a_relu
I0616 20:17:42.029527 55647 net.cpp:157] Top shape: 4 256 20 20 (409600)
I0616 20:17:42.029532 55647 net.cpp:165] Memory required for data: 1561317856
I0616 20:17:42.029536 55647 layer_factory.hpp:77] Creating layer res4b1_branch2b
I0616 20:17:42.029541 55647 net.cpp:100] Creating Layer res4b1_branch2b
I0616 20:17:42.029546 55647 net.cpp:434] res4b1_branch2b <- res4b1_branch2a
I0616 20:17:42.029551 55647 net.cpp:408] res4b1_branch2b -> res4b1_branch2b
I0616 20:17:42.033695 55647 net.cpp:150] Setting up res4b1_branch2b
I0616 20:17:42.033704 55647 net.cpp:157] Top shape: 4 256 20 20 (409600)
I0616 20:17:42.033707 55647 net.cpp:165] Memory required for data: 1562956256
I0616 20:17:42.033710 55647 layer_factory.hpp:77] Creating layer bn4b1_branch2b
I0616 20:17:42.033715 55647 net.cpp:100] Creating Layer bn4b1_branch2b
I0616 20:17:42.033718 55647 net.cpp:434] bn4b1_branch2b <- res4b1_branch2b
I0616 20:17:42.033722 55647 net.cpp:395] bn4b1_branch2b -> res4b1_branch2b (in-place)
I0616 20:17:42.033839 55647 net.cpp:150] Setting up bn4b1_branch2b
I0616 20:17:42.033843 55647 net.cpp:157] Top shape: 4 256 20 20 (409600)
I0616 20:17:42.033846 55647 net.cpp:165] Memory required for data: 1564594656
I0616 20:17:42.033850 55647 layer_factory.hpp:77] Creating layer scale4b1_branch2b
I0616 20:17:42.033855 55647 net.cpp:100] Creating Layer scale4b1_branch2b
I0616 20:17:42.033859 55647 net.cpp:434] scale4b1_branch2b <- res4b1_branch2b
I0616 20:17:42.033864 55647 net.cpp:395] scale4b1_branch2b -> res4b1_branch2b (in-place)
I0616 20:17:42.033890 55647 layer_factory.hpp:77] Creating layer scale4b1_branch2b
I0616 20:17:42.033954 55647 net.cpp:150] Setting up scale4b1_branch2b
I0616 20:17:42.033959 55647 net.cpp:157] Top shape: 4 256 20 20 (409600)
I0616 20:17:42.033962 55647 net.cpp:165] Memory required for data: 1566233056
I0616 20:17:42.033965 55647 layer_factory.hpp:77] Creating layer res4b1_branch2b_relu
I0616 20:17:42.033969 55647 net.cpp:100] Creating Layer res4b1_branch2b_relu
I0616 20:17:42.033972 55647 net.cpp:434] res4b1_branch2b_relu <- res4b1_branch2b
I0616 20:17:42.033977 55647 net.cpp:395] res4b1_branch2b_relu -> res4b1_branch2b (in-place)
I0616 20:17:42.033980 55647 net.cpp:150] Setting up res4b1_branch2b_relu
I0616 20:17:42.033982 55647 net.cpp:157] Top shape: 4 256 20 20 (409600)
I0616 20:17:42.033987 55647 net.cpp:165] Memory required for data: 1567871456
I0616 20:17:42.033988 55647 layer_factory.hpp:77] Creating layer res4b1_branch2c
I0616 20:17:42.033994 55647 net.cpp:100] Creating Layer res4b1_branch2c
I0616 20:17:42.034000 55647 net.cpp:434] res4b1_branch2c <- res4b1_branch2b
I0616 20:17:42.034004 55647 net.cpp:408] res4b1_branch2c -> res4b1_branch2c
I0616 20:17:42.036201 55647 net.cpp:150] Setting up res4b1_branch2c
I0616 20:17:42.036208 55647 net.cpp:157] Top shape: 4 1024 20 20 (1638400)
I0616 20:17:42.036211 55647 net.cpp:165] Memory required for data: 1574425056
I0616 20:17:42.036216 55647 layer_factory.hpp:77] Creating layer bn4b1_branch2c
I0616 20:17:42.036221 55647 net.cpp:100] Creating Layer bn4b1_branch2c
I0616 20:17:42.036226 55647 net.cpp:434] bn4b1_branch2c <- res4b1_branch2c
I0616 20:17:42.036229 55647 net.cpp:395] bn4b1_branch2c -> res4b1_branch2c (in-place)
I0616 20:17:42.036332 55647 net.cpp:150] Setting up bn4b1_branch2c
I0616 20:17:42.036336 55647 net.cpp:157] Top shape: 4 1024 20 20 (1638400)
I0616 20:17:42.036339 55647 net.cpp:165] Memory required for data: 1580978656
I0616 20:17:42.036343 55647 layer_factory.hpp:77] Creating layer scale4b1_branch2c
I0616 20:17:42.036348 55647 net.cpp:100] Creating Layer scale4b1_branch2c
I0616 20:17:42.036355 55647 net.cpp:434] scale4b1_branch2c <- res4b1_branch2c
I0616 20:17:42.036358 55647 net.cpp:395] scale4b1_branch2c -> res4b1_branch2c (in-place)
I0616 20:17:42.036398 55647 layer_factory.hpp:77] Creating layer scale4b1_branch2c
I0616 20:17:42.036478 55647 net.cpp:150] Setting up scale4b1_branch2c
I0616 20:17:42.036487 55647 net.cpp:157] Top shape: 4 1024 20 20 (1638400)
I0616 20:17:42.036491 55647 net.cpp:165] Memory required for data: 1587532256
I0616 20:17:42.036496 55647 layer_factory.hpp:77] Creating layer res4b1
I0616 20:17:42.036500 55647 net.cpp:100] Creating Layer res4b1
I0616 20:17:42.036504 55647 net.cpp:434] res4b1 <- res4a_res4a_relu_0_split_1
I0616 20:17:42.036506 55647 net.cpp:434] res4b1 <- res4b1_branch2c
I0616 20:17:42.036509 55647 net.cpp:408] res4b1 -> res4b1
I0616 20:17:42.036523 55647 net.cpp:150] Setting up res4b1
I0616 20:17:42.036528 55647 net.cpp:157] Top shape: 4 1024 20 20 (1638400)
I0616 20:17:42.036531 55647 net.cpp:165] Memory required for data: 1594085856
I0616 20:17:42.036535 55647 layer_factory.hpp:77] Creating layer res4b1_relu
I0616 20:17:42.036537 55647 net.cpp:100] Creating Layer res4b1_relu
I0616 20:17:42.036540 55647 net.cpp:434] res4b1_relu <- res4b1
I0616 20:17:42.036543 55647 net.cpp:395] res4b1_relu -> res4b1 (in-place)
I0616 20:17:42.036547 55647 net.cpp:150] Setting up res4b1_relu
I0616 20:17:42.036552 55647 net.cpp:157] Top shape: 4 1024 20 20 (1638400)
I0616 20:17:42.036558 55647 net.cpp:165] Memory required for data: 1600639456
I0616 20:17:42.036561 55647 layer_factory.hpp:77] Creating layer res4b1_res4b1_relu_0_split
I0616 20:17:42.036566 55647 net.cpp:100] Creating Layer res4b1_res4b1_relu_0_split
I0616 20:17:42.036574 55647 net.cpp:434] res4b1_res4b1_relu_0_split <- res4b1
I0616 20:17:42.036582 55647 net.cpp:408] res4b1_res4b1_relu_0_split -> res4b1_res4b1_relu_0_split_0
I0616 20:17:42.036588 55647 net.cpp:408] res4b1_res4b1_relu_0_split -> res4b1_res4b1_relu_0_split_1
I0616 20:17:42.036617 55647 net.cpp:150] Setting up res4b1_res4b1_relu_0_split
I0616 20:17:42.036624 55647 net.cpp:157] Top shape: 4 1024 20 20 (1638400)
I0616 20:17:42.036628 55647 net.cpp:157] Top shape: 4 1024 20 20 (1638400)
I0616 20:17:42.036633 55647 net.cpp:165] Memory required for data: 1613746656
I0616 20:17:42.036636 55647 layer_factory.hpp:77] Creating layer res4b2_branch2a
I0616 20:17:42.036644 55647 net.cpp:100] Creating Layer res4b2_branch2a
I0616 20:17:42.036648 55647 net.cpp:434] res4b2_branch2a <- res4b1_res4b1_relu_0_split_0
I0616 20:17:42.036654 55647 net.cpp:408] res4b2_branch2a -> res4b2_branch2a
I0616 20:17:42.038239 55647 net.cpp:150] Setting up res4b2_branch2a
I0616 20:17:42.038247 55647 net.cpp:157] Top shape: 4 256 20 20 (409600)
I0616 20:17:42.038251 55647 net.cpp:165] Memory required for data: 1615385056
I0616 20:17:42.038256 55647 layer_factory.hpp:77] Creating layer bn4b2_branch2a
I0616 20:17:42.038261 55647 net.cpp:100] Creating Layer bn4b2_branch2a
I0616 20:17:42.038265 55647 net.cpp:434] bn4b2_branch2a <- res4b2_branch2a
I0616 20:17:42.038269 55647 net.cpp:395] bn4b2_branch2a -> res4b2_branch2a (in-place)
I0616 20:17:42.038369 55647 net.cpp:150] Setting up bn4b2_branch2a
I0616 20:17:42.038373 55647 net.cpp:157] Top shape: 4 256 20 20 (409600)
I0616 20:17:42.038378 55647 net.cpp:165] Memory required for data: 1617023456
I0616 20:17:42.038383 55647 layer_factory.hpp:77] Creating layer scale4b2_branch2a
I0616 20:17:42.038389 55647 net.cpp:100] Creating Layer scale4b2_branch2a
I0616 20:17:42.038393 55647 net.cpp:434] scale4b2_branch2a <- res4b2_branch2a
I0616 20:17:42.038398 55647 net.cpp:395] scale4b2_branch2a -> res4b2_branch2a (in-place)
I0616 20:17:42.038422 55647 layer_factory.hpp:77] Creating layer scale4b2_branch2a
I0616 20:17:42.038480 55647 net.cpp:150] Setting up scale4b2_branch2a
I0616 20:17:42.038483 55647 net.cpp:157] Top shape: 4 256 20 20 (409600)
I0616 20:17:42.038487 55647 net.cpp:165] Memory required for data: 1618661856
I0616 20:17:42.038492 55647 layer_factory.hpp:77] Creating layer res4b2_branch2a_relu
I0616 20:17:42.038497 55647 net.cpp:100] Creating Layer res4b2_branch2a_relu
I0616 20:17:42.038501 55647 net.cpp:434] res4b2_branch2a_relu <- res4b2_branch2a
I0616 20:17:42.038516 55647 net.cpp:395] res4b2_branch2a_relu -> res4b2_branch2a (in-place)
I0616 20:17:42.038520 55647 net.cpp:150] Setting up res4b2_branch2a_relu
I0616 20:17:42.038522 55647 net.cpp:157] Top shape: 4 256 20 20 (409600)
I0616 20:17:42.038527 55647 net.cpp:165] Memory required for data: 1620300256
I0616 20:17:42.038530 55647 layer_factory.hpp:77] Creating layer res4b2_branch2b
I0616 20:17:42.038537 55647 net.cpp:100] Creating Layer res4b2_branch2b
I0616 20:17:42.038539 55647 net.cpp:434] res4b2_branch2b <- res4b2_branch2a
I0616 20:17:42.038543 55647 net.cpp:408] res4b2_branch2b -> res4b2_branch2b
I0616 20:17:42.042661 55647 net.cpp:150] Setting up res4b2_branch2b
I0616 20:17:42.042670 55647 net.cpp:157] Top shape: 4 256 20 20 (409600)
I0616 20:17:42.042677 55647 net.cpp:165] Memory required for data: 1621938656
I0616 20:17:42.042683 55647 layer_factory.hpp:77] Creating layer bn4b2_branch2b
I0616 20:17:42.042688 55647 net.cpp:100] Creating Layer bn4b2_branch2b
I0616 20:17:42.042693 55647 net.cpp:434] bn4b2_branch2b <- res4b2_branch2b
I0616 20:17:42.042698 55647 net.cpp:395] bn4b2_branch2b -> res4b2_branch2b (in-place)
I0616 20:17:42.042814 55647 net.cpp:150] Setting up bn4b2_branch2b
I0616 20:17:42.042821 55647 net.cpp:157] Top shape: 4 256 20 20 (409600)
I0616 20:17:42.042829 55647 net.cpp:165] Memory required for data: 1623577056
I0616 20:17:42.042836 55647 layer_factory.hpp:77] Creating layer scale4b2_branch2b
I0616 20:17:42.042845 55647 net.cpp:100] Creating Layer scale4b2_branch2b
I0616 20:17:42.042847 55647 net.cpp:434] scale4b2_branch2b <- res4b2_branch2b
I0616 20:17:42.042851 55647 net.cpp:395] scale4b2_branch2b -> res4b2_branch2b (in-place)
I0616 20:17:42.042881 55647 layer_factory.hpp:77] Creating layer scale4b2_branch2b
I0616 20:17:42.042958 55647 net.cpp:150] Setting up scale4b2_branch2b
I0616 20:17:42.042966 55647 net.cpp:157] Top shape: 4 256 20 20 (409600)
I0616 20:17:42.042971 55647 net.cpp:165] Memory required for data: 1625215456
I0616 20:17:42.042979 55647 layer_factory.hpp:77] Creating layer res4b2_branch2b_relu
I0616 20:17:42.042984 55647 net.cpp:100] Creating Layer res4b2_branch2b_relu
I0616 20:17:42.042987 55647 net.cpp:434] res4b2_branch2b_relu <- res4b2_branch2b
I0616 20:17:42.042992 55647 net.cpp:395] res4b2_branch2b_relu -> res4b2_branch2b (in-place)
I0616 20:17:42.042999 55647 net.cpp:150] Setting up res4b2_branch2b_relu
I0616 20:17:42.043001 55647 net.cpp:157] Top shape: 4 256 20 20 (409600)
I0616 20:17:42.043006 55647 net.cpp:165] Memory required for data: 1626853856
I0616 20:17:42.043009 55647 layer_factory.hpp:77] Creating layer res4b2_branch2c
I0616 20:17:42.043016 55647 net.cpp:100] Creating Layer res4b2_branch2c
I0616 20:17:42.043040 55647 net.cpp:434] res4b2_branch2c <- res4b2_branch2b
I0616 20:17:42.043051 55647 net.cpp:408] res4b2_branch2c -> res4b2_branch2c
I0616 20:17:42.045313 55647 net.cpp:150] Setting up res4b2_branch2c
I0616 20:17:42.045321 55647 net.cpp:157] Top shape: 4 1024 20 20 (1638400)
I0616 20:17:42.045326 55647 net.cpp:165] Memory required for data: 1633407456
I0616 20:17:42.045332 55647 layer_factory.hpp:77] Creating layer bn4b2_branch2c
I0616 20:17:42.045343 55647 net.cpp:100] Creating Layer bn4b2_branch2c
I0616 20:17:42.045349 55647 net.cpp:434] bn4b2_branch2c <- res4b2_branch2c
I0616 20:17:42.045353 55647 net.cpp:395] bn4b2_branch2c -> res4b2_branch2c (in-place)
I0616 20:17:42.045472 55647 net.cpp:150] Setting up bn4b2_branch2c
I0616 20:17:42.045476 55647 net.cpp:157] Top shape: 4 1024 20 20 (1638400)
I0616 20:17:42.045480 55647 net.cpp:165] Memory required for data: 1639961056
I0616 20:17:42.045486 55647 layer_factory.hpp:77] Creating layer scale4b2_branch2c
I0616 20:17:42.045491 55647 net.cpp:100] Creating Layer scale4b2_branch2c
I0616 20:17:42.045496 55647 net.cpp:434] scale4b2_branch2c <- res4b2_branch2c
I0616 20:17:42.045500 55647 net.cpp:395] scale4b2_branch2c -> res4b2_branch2c (in-place)
I0616 20:17:42.045526 55647 layer_factory.hpp:77] Creating layer scale4b2_branch2c
I0616 20:17:42.045585 55647 net.cpp:150] Setting up scale4b2_branch2c
I0616 20:17:42.045600 55647 net.cpp:157] Top shape: 4 1024 20 20 (1638400)
I0616 20:17:42.045604 55647 net.cpp:165] Memory required for data: 1646514656
I0616 20:17:42.045608 55647 layer_factory.hpp:77] Creating layer res4b2
I0616 20:17:42.045612 55647 net.cpp:100] Creating Layer res4b2
I0616 20:17:42.045619 55647 net.cpp:434] res4b2 <- res4b1_res4b1_relu_0_split_1
I0616 20:17:42.045622 55647 net.cpp:434] res4b2 <- res4b2_branch2c
I0616 20:17:42.045625 55647 net.cpp:408] res4b2 -> res4b2
I0616 20:17:42.045644 55647 net.cpp:150] Setting up res4b2
I0616 20:17:42.045647 55647 net.cpp:157] Top shape: 4 1024 20 20 (1638400)
I0616 20:17:42.045651 55647 net.cpp:165] Memory required for data: 1653068256
I0616 20:17:42.045653 55647 layer_factory.hpp:77] Creating layer res4b2_relu
I0616 20:17:42.045657 55647 net.cpp:100] Creating Layer res4b2_relu
I0616 20:17:42.045662 55647 net.cpp:434] res4b2_relu <- res4b2
I0616 20:17:42.045666 55647 net.cpp:395] res4b2_relu -> res4b2 (in-place)
I0616 20:17:42.045670 55647 net.cpp:150] Setting up res4b2_relu
I0616 20:17:42.045673 55647 net.cpp:157] Top shape: 4 1024 20 20 (1638400)
I0616 20:17:42.045677 55647 net.cpp:165] Memory required for data: 1659621856
I0616 20:17:42.045680 55647 layer_factory.hpp:77] Creating layer res4b2_res4b2_relu_0_split
I0616 20:17:42.045686 55647 net.cpp:100] Creating Layer res4b2_res4b2_relu_0_split
I0616 20:17:42.045691 55647 net.cpp:434] res4b2_res4b2_relu_0_split <- res4b2
I0616 20:17:42.045694 55647 net.cpp:408] res4b2_res4b2_relu_0_split -> res4b2_res4b2_relu_0_split_0
I0616 20:17:42.045698 55647 net.cpp:408] res4b2_res4b2_relu_0_split -> res4b2_res4b2_relu_0_split_1
I0616 20:17:42.045722 55647 net.cpp:150] Setting up res4b2_res4b2_relu_0_split
I0616 20:17:42.045724 55647 net.cpp:157] Top shape: 4 1024 20 20 (1638400)
I0616 20:17:42.045727 55647 net.cpp:157] Top shape: 4 1024 20 20 (1638400)
I0616 20:17:42.045730 55647 net.cpp:165] Memory required for data: 1672729056
I0616 20:17:42.045733 55647 layer_factory.hpp:77] Creating layer res4b3_branch2a
I0616 20:17:42.045740 55647 net.cpp:100] Creating Layer res4b3_branch2a
I0616 20:17:42.045745 55647 net.cpp:434] res4b3_branch2a <- res4b2_res4b2_relu_0_split_0
I0616 20:17:42.045749 55647 net.cpp:408] res4b3_branch2a -> res4b3_branch2a
I0616 20:17:42.048010 55647 net.cpp:150] Setting up res4b3_branch2a
I0616 20:17:42.048018 55647 net.cpp:157] Top shape: 4 256 20 20 (409600)
I0616 20:17:42.048022 55647 net.cpp:165] Memory required for data: 1674367456
I0616 20:17:42.048025 55647 layer_factory.hpp:77] Creating layer bn4b3_branch2a
I0616 20:17:42.048029 55647 net.cpp:100] Creating Layer bn4b3_branch2a
I0616 20:17:42.048033 55647 net.cpp:434] bn4b3_branch2a <- res4b3_branch2a
I0616 20:17:42.048038 55647 net.cpp:395] bn4b3_branch2a -> res4b3_branch2a (in-place)
I0616 20:17:42.048136 55647 net.cpp:150] Setting up bn4b3_branch2a
I0616 20:17:42.048139 55647 net.cpp:157] Top shape: 4 256 20 20 (409600)
I0616 20:17:42.048142 55647 net.cpp:165] Memory required for data: 1676005856
I0616 20:17:42.048146 55647 layer_factory.hpp:77] Creating layer scale4b3_branch2a
I0616 20:17:42.048151 55647 net.cpp:100] Creating Layer scale4b3_branch2a
I0616 20:17:42.048154 55647 net.cpp:434] scale4b3_branch2a <- res4b3_branch2a
I0616 20:17:42.048158 55647 net.cpp:395] scale4b3_branch2a -> res4b3_branch2a (in-place)
I0616 20:17:42.048182 55647 layer_factory.hpp:77] Creating layer scale4b3_branch2a
I0616 20:17:42.048238 55647 net.cpp:150] Setting up scale4b3_branch2a
I0616 20:17:42.048243 55647 net.cpp:157] Top shape: 4 256 20 20 (409600)
I0616 20:17:42.048245 55647 net.cpp:165] Memory required for data: 1677644256
I0616 20:17:42.048249 55647 layer_factory.hpp:77] Creating layer res4b3_branch2a_relu
I0616 20:17:42.048254 55647 net.cpp:100] Creating Layer res4b3_branch2a_relu
I0616 20:17:42.048255 55647 net.cpp:434] res4b3_branch2a_relu <- res4b3_branch2a
I0616 20:17:42.048259 55647 net.cpp:395] res4b3_branch2a_relu -> res4b3_branch2a (in-place)
I0616 20:17:42.048264 55647 net.cpp:150] Setting up res4b3_branch2a_relu
I0616 20:17:42.048266 55647 net.cpp:157] Top shape: 4 256 20 20 (409600)
I0616 20:17:42.048288 55647 net.cpp:165] Memory required for data: 1679282656
I0616 20:17:42.048291 55647 layer_factory.hpp:77] Creating layer res4b3_branch2b
I0616 20:17:42.048297 55647 net.cpp:100] Creating Layer res4b3_branch2b
I0616 20:17:42.048300 55647 net.cpp:434] res4b3_branch2b <- res4b3_branch2a
I0616 20:17:42.048305 55647 net.cpp:408] res4b3_branch2b -> res4b3_branch2b
I0616 20:17:42.052454 55647 net.cpp:150] Setting up res4b3_branch2b
I0616 20:17:42.052461 55647 net.cpp:157] Top shape: 4 256 20 20 (409600)
I0616 20:17:42.052465 55647 net.cpp:165] Memory required for data: 1680921056
I0616 20:17:42.052469 55647 layer_factory.hpp:77] Creating layer bn4b3_branch2b
I0616 20:17:42.052474 55647 net.cpp:100] Creating Layer bn4b3_branch2b
I0616 20:17:42.052477 55647 net.cpp:434] bn4b3_branch2b <- res4b3_branch2b
I0616 20:17:42.052481 55647 net.cpp:395] bn4b3_branch2b -> res4b3_branch2b (in-place)
I0616 20:17:42.052582 55647 net.cpp:150] Setting up bn4b3_branch2b
I0616 20:17:42.052587 55647 net.cpp:157] Top shape: 4 256 20 20 (409600)
I0616 20:17:42.052589 55647 net.cpp:165] Memory required for data: 1682559456
I0616 20:17:42.052594 55647 layer_factory.hpp:77] Creating layer scale4b3_branch2b
I0616 20:17:42.052599 55647 net.cpp:100] Creating Layer scale4b3_branch2b
I0616 20:17:42.052603 55647 net.cpp:434] scale4b3_branch2b <- res4b3_branch2b
I0616 20:17:42.052608 55647 net.cpp:395] scale4b3_branch2b -> res4b3_branch2b (in-place)
I0616 20:17:42.052629 55647 layer_factory.hpp:77] Creating layer scale4b3_branch2b
I0616 20:17:42.052693 55647 net.cpp:150] Setting up scale4b3_branch2b
I0616 20:17:42.052696 55647 net.cpp:157] Top shape: 4 256 20 20 (409600)
I0616 20:17:42.052700 55647 net.cpp:165] Memory required for data: 1684197856
I0616 20:17:42.052703 55647 layer_factory.hpp:77] Creating layer res4b3_branch2b_relu
I0616 20:17:42.052707 55647 net.cpp:100] Creating Layer res4b3_branch2b_relu
I0616 20:17:42.052711 55647 net.cpp:434] res4b3_branch2b_relu <- res4b3_branch2b
I0616 20:17:42.052714 55647 net.cpp:395] res4b3_branch2b_relu -> res4b3_branch2b (in-place)
I0616 20:17:42.052718 55647 net.cpp:150] Setting up res4b3_branch2b_relu
I0616 20:17:42.052721 55647 net.cpp:157] Top shape: 4 256 20 20 (409600)
I0616 20:17:42.052724 55647 net.cpp:165] Memory required for data: 1685836256
I0616 20:17:42.052726 55647 layer_factory.hpp:77] Creating layer res4b3_branch2c
I0616 20:17:42.052732 55647 net.cpp:100] Creating Layer res4b3_branch2c
I0616 20:17:42.052736 55647 net.cpp:434] res4b3_branch2c <- res4b3_branch2b
I0616 20:17:42.052740 55647 net.cpp:408] res4b3_branch2c -> res4b3_branch2c
I0616 20:17:42.054324 55647 net.cpp:150] Setting up res4b3_branch2c
I0616 20:17:42.054332 55647 net.cpp:157] Top shape: 4 1024 20 20 (1638400)
I0616 20:17:42.054337 55647 net.cpp:165] Memory required for data: 1692389856
I0616 20:17:42.054339 55647 layer_factory.hpp:77] Creating layer bn4b3_branch2c
I0616 20:17:42.054344 55647 net.cpp:100] Creating Layer bn4b3_branch2c
I0616 20:17:42.054348 55647 net.cpp:434] bn4b3_branch2c <- res4b3_branch2c
I0616 20:17:42.054360 55647 net.cpp:395] bn4b3_branch2c -> res4b3_branch2c (in-place)
I0616 20:17:42.054459 55647 net.cpp:150] Setting up bn4b3_branch2c
I0616 20:17:42.054463 55647 net.cpp:157] Top shape: 4 1024 20 20 (1638400)
I0616 20:17:42.054466 55647 net.cpp:165] Memory required for data: 1698943456
I0616 20:17:42.054471 55647 layer_factory.hpp:77] Creating layer scale4b3_branch2c
I0616 20:17:42.054476 55647 net.cpp:100] Creating Layer scale4b3_branch2c
I0616 20:17:42.054479 55647 net.cpp:434] scale4b3_branch2c <- res4b3_branch2c
I0616 20:17:42.054487 55647 net.cpp:395] scale4b3_branch2c -> res4b3_branch2c (in-place)
I0616 20:17:42.054510 55647 layer_factory.hpp:77] Creating layer scale4b3_branch2c
I0616 20:17:42.054579 55647 net.cpp:150] Setting up scale4b3_branch2c
I0616 20:17:42.054586 55647 net.cpp:157] Top shape: 4 1024 20 20 (1638400)
I0616 20:17:42.054592 55647 net.cpp:165] Memory required for data: 1705497056
I0616 20:17:42.054605 55647 layer_factory.hpp:77] Creating layer res4b3
I0616 20:17:42.054622 55647 net.cpp:100] Creating Layer res4b3
I0616 20:17:42.054626 55647 net.cpp:434] res4b3 <- res4b2_res4b2_relu_0_split_1
I0616 20:17:42.054631 55647 net.cpp:434] res4b3 <- res4b3_branch2c
I0616 20:17:42.054637 55647 net.cpp:408] res4b3 -> res4b3
I0616 20:17:42.054656 55647 net.cpp:150] Setting up res4b3
I0616 20:17:42.054661 55647 net.cpp:157] Top shape: 4 1024 20 20 (1638400)
I0616 20:17:42.054664 55647 net.cpp:165] Memory required for data: 1712050656
I0616 20:17:42.054666 55647 layer_factory.hpp:77] Creating layer res4b3_relu
I0616 20:17:42.054670 55647 net.cpp:100] Creating Layer res4b3_relu
I0616 20:17:42.054673 55647 net.cpp:434] res4b3_relu <- res4b3
I0616 20:17:42.054677 55647 net.cpp:395] res4b3_relu -> res4b3 (in-place)
I0616 20:17:42.054682 55647 net.cpp:150] Setting up res4b3_relu
I0616 20:17:42.054683 55647 net.cpp:157] Top shape: 4 1024 20 20 (1638400)
I0616 20:17:42.054687 55647 net.cpp:165] Memory required for data: 1718604256
I0616 20:17:42.054689 55647 layer_factory.hpp:77] Creating layer res4b3_res4b3_relu_0_split
I0616 20:17:42.054693 55647 net.cpp:100] Creating Layer res4b3_res4b3_relu_0_split
I0616 20:17:42.054697 55647 net.cpp:434] res4b3_res4b3_relu_0_split <- res4b3
I0616 20:17:42.054700 55647 net.cpp:408] res4b3_res4b3_relu_0_split -> res4b3_res4b3_relu_0_split_0
I0616 20:17:42.054709 55647 net.cpp:408] res4b3_res4b3_relu_0_split -> res4b3_res4b3_relu_0_split_1
I0616 20:17:42.054731 55647 net.cpp:150] Setting up res4b3_res4b3_relu_0_split
I0616 20:17:42.054735 55647 net.cpp:157] Top shape: 4 1024 20 20 (1638400)
I0616 20:17:42.054738 55647 net.cpp:157] Top shape: 4 1024 20 20 (1638400)
I0616 20:17:42.054741 55647 net.cpp:165] Memory required for data: 1731711456
I0616 20:17:42.054744 55647 layer_factory.hpp:77] Creating layer res4b4_branch2a
I0616 20:17:42.054750 55647 net.cpp:100] Creating Layer res4b4_branch2a
I0616 20:17:42.054754 55647 net.cpp:434] res4b4_branch2a <- res4b3_res4b3_relu_0_split_0
I0616 20:17:42.054757 55647 net.cpp:408] res4b4_branch2a -> res4b4_branch2a
I0616 20:17:42.056999 55647 net.cpp:150] Setting up res4b4_branch2a
I0616 20:17:42.057008 55647 net.cpp:157] Top shape: 4 256 20 20 (409600)
I0616 20:17:42.057011 55647 net.cpp:165] Memory required for data: 1733349856
I0616 20:17:42.057014 55647 layer_factory.hpp:77] Creating layer bn4b4_branch2a
I0616 20:17:42.057019 55647 net.cpp:100] Creating Layer bn4b4_branch2a
I0616 20:17:42.057022 55647 net.cpp:434] bn4b4_branch2a <- res4b4_branch2a
I0616 20:17:42.057026 55647 net.cpp:395] bn4b4_branch2a -> res4b4_branch2a (in-place)
I0616 20:17:42.057126 55647 net.cpp:150] Setting up bn4b4_branch2a
I0616 20:17:42.057130 55647 net.cpp:157] Top shape: 4 256 20 20 (409600)
I0616 20:17:42.057134 55647 net.cpp:165] Memory required for data: 1734988256
I0616 20:17:42.057139 55647 layer_factory.hpp:77] Creating layer scale4b4_branch2a
I0616 20:17:42.057144 55647 net.cpp:100] Creating Layer scale4b4_branch2a
I0616 20:17:42.057148 55647 net.cpp:434] scale4b4_branch2a <- res4b4_branch2a
I0616 20:17:42.057152 55647 net.cpp:395] scale4b4_branch2a -> res4b4_branch2a (in-place)
I0616 20:17:42.057176 55647 layer_factory.hpp:77] Creating layer scale4b4_branch2a
I0616 20:17:42.057237 55647 net.cpp:150] Setting up scale4b4_branch2a
I0616 20:17:42.057241 55647 net.cpp:157] Top shape: 4 256 20 20 (409600)
I0616 20:17:42.057245 55647 net.cpp:165] Memory required for data: 1736626656
I0616 20:17:42.057250 55647 layer_factory.hpp:77] Creating layer res4b4_branch2a_relu
I0616 20:17:42.057253 55647 net.cpp:100] Creating Layer res4b4_branch2a_relu
I0616 20:17:42.057256 55647 net.cpp:434] res4b4_branch2a_relu <- res4b4_branch2a
I0616 20:17:42.057260 55647 net.cpp:395] res4b4_branch2a_relu -> res4b4_branch2a (in-place)
I0616 20:17:42.057265 55647 net.cpp:150] Setting up res4b4_branch2a_relu
I0616 20:17:42.057266 55647 net.cpp:157] Top shape: 4 256 20 20 (409600)
I0616 20:17:42.057271 55647 net.cpp:165] Memory required for data: 1738265056
I0616 20:17:42.057272 55647 layer_factory.hpp:77] Creating layer res4b4_branch2b
I0616 20:17:42.057289 55647 net.cpp:100] Creating Layer res4b4_branch2b
I0616 20:17:42.057292 55647 net.cpp:434] res4b4_branch2b <- res4b4_branch2a
I0616 20:17:42.057297 55647 net.cpp:408] res4b4_branch2b -> res4b4_branch2b
I0616 20:17:42.061421 55647 net.cpp:150] Setting up res4b4_branch2b
I0616 20:17:42.061429 55647 net.cpp:157] Top shape: 4 256 20 20 (409600)
I0616 20:17:42.061432 55647 net.cpp:165] Memory required for data: 1739903456
I0616 20:17:42.061435 55647 layer_factory.hpp:77] Creating layer bn4b4_branch2b
I0616 20:17:42.061439 55647 net.cpp:100] Creating Layer bn4b4_branch2b
I0616 20:17:42.061442 55647 net.cpp:434] bn4b4_branch2b <- res4b4_branch2b
I0616 20:17:42.061447 55647 net.cpp:395] bn4b4_branch2b -> res4b4_branch2b (in-place)
I0616 20:17:42.061550 55647 net.cpp:150] Setting up bn4b4_branch2b
I0616 20:17:42.061554 55647 net.cpp:157] Top shape: 4 256 20 20 (409600)
I0616 20:17:42.061558 55647 net.cpp:165] Memory required for data: 1741541856
I0616 20:17:42.061563 55647 layer_factory.hpp:77] Creating layer scale4b4_branch2b
I0616 20:17:42.061570 55647 net.cpp:100] Creating Layer scale4b4_branch2b
I0616 20:17:42.061573 55647 net.cpp:434] scale4b4_branch2b <- res4b4_branch2b
I0616 20:17:42.061576 55647 net.cpp:395] scale4b4_branch2b -> res4b4_branch2b (in-place)
I0616 20:17:42.061602 55647 layer_factory.hpp:77] Creating layer scale4b4_branch2b
I0616 20:17:42.061659 55647 net.cpp:150] Setting up scale4b4_branch2b
I0616 20:17:42.061663 55647 net.cpp:157] Top shape: 4 256 20 20 (409600)
I0616 20:17:42.061667 55647 net.cpp:165] Memory required for data: 1743180256
I0616 20:17:42.061671 55647 layer_factory.hpp:77] Creating layer res4b4_branch2b_relu
I0616 20:17:42.061674 55647 net.cpp:100] Creating Layer res4b4_branch2b_relu
I0616 20:17:42.061677 55647 net.cpp:434] res4b4_branch2b_relu <- res4b4_branch2b
I0616 20:17:42.061681 55647 net.cpp:395] res4b4_branch2b_relu -> res4b4_branch2b (in-place)
I0616 20:17:42.061686 55647 net.cpp:150] Setting up res4b4_branch2b_relu
I0616 20:17:42.061688 55647 net.cpp:157] Top shape: 4 256 20 20 (409600)
I0616 20:17:42.061692 55647 net.cpp:165] Memory required for data: 1744818656
I0616 20:17:42.061694 55647 layer_factory.hpp:77] Creating layer res4b4_branch2c
I0616 20:17:42.061700 55647 net.cpp:100] Creating Layer res4b4_branch2c
I0616 20:17:42.061702 55647 net.cpp:434] res4b4_branch2c <- res4b4_branch2b
I0616 20:17:42.061707 55647 net.cpp:408] res4b4_branch2c -> res4b4_branch2c
I0616 20:17:42.063311 55647 net.cpp:150] Setting up res4b4_branch2c
I0616 20:17:42.063319 55647 net.cpp:157] Top shape: 4 1024 20 20 (1638400)
I0616 20:17:42.063323 55647 net.cpp:165] Memory required for data: 1751372256
I0616 20:17:42.063325 55647 layer_factory.hpp:77] Creating layer bn4b4_branch2c
I0616 20:17:42.063333 55647 net.cpp:100] Creating Layer bn4b4_branch2c
I0616 20:17:42.063342 55647 net.cpp:434] bn4b4_branch2c <- res4b4_branch2c
I0616 20:17:42.063347 55647 net.cpp:395] bn4b4_branch2c -> res4b4_branch2c (in-place)
I0616 20:17:42.063452 55647 net.cpp:150] Setting up bn4b4_branch2c
I0616 20:17:42.063457 55647 net.cpp:157] Top shape: 4 1024 20 20 (1638400)
I0616 20:17:42.063460 55647 net.cpp:165] Memory required for data: 1757925856
I0616 20:17:42.063465 55647 layer_factory.hpp:77] Creating layer scale4b4_branch2c
I0616 20:17:42.063470 55647 net.cpp:100] Creating Layer scale4b4_branch2c
I0616 20:17:42.063473 55647 net.cpp:434] scale4b4_branch2c <- res4b4_branch2c
I0616 20:17:42.063477 55647 net.cpp:395] scale4b4_branch2c -> res4b4_branch2c (in-place)
I0616 20:17:42.063503 55647 layer_factory.hpp:77] Creating layer scale4b4_branch2c
I0616 20:17:42.063560 55647 net.cpp:150] Setting up scale4b4_branch2c
I0616 20:17:42.063565 55647 net.cpp:157] Top shape: 4 1024 20 20 (1638400)
I0616 20:17:42.063567 55647 net.cpp:165] Memory required for data: 1764479456
I0616 20:17:42.063570 55647 layer_factory.hpp:77] Creating layer res4b4
I0616 20:17:42.063573 55647 net.cpp:100] Creating Layer res4b4
I0616 20:17:42.063576 55647 net.cpp:434] res4b4 <- res4b3_res4b3_relu_0_split_1
I0616 20:17:42.063580 55647 net.cpp:434] res4b4 <- res4b4_branch2c
I0616 20:17:42.063594 55647 net.cpp:408] res4b4 -> res4b4
I0616 20:17:42.063611 55647 net.cpp:150] Setting up res4b4
I0616 20:17:42.063613 55647 net.cpp:157] Top shape: 4 1024 20 20 (1638400)
I0616 20:17:42.063616 55647 net.cpp:165] Memory required for data: 1771033056
I0616 20:17:42.063618 55647 layer_factory.hpp:77] Creating layer res4b4_relu
I0616 20:17:42.063621 55647 net.cpp:100] Creating Layer res4b4_relu
I0616 20:17:42.063624 55647 net.cpp:434] res4b4_relu <- res4b4
I0616 20:17:42.063627 55647 net.cpp:395] res4b4_relu -> res4b4 (in-place)
I0616 20:17:42.063632 55647 net.cpp:150] Setting up res4b4_relu
I0616 20:17:42.063637 55647 net.cpp:157] Top shape: 4 1024 20 20 (1638400)
I0616 20:17:42.063640 55647 net.cpp:165] Memory required for data: 1777586656
I0616 20:17:42.063643 55647 layer_factory.hpp:77] Creating layer res4b4_res4b4_relu_0_split
I0616 20:17:42.063647 55647 net.cpp:100] Creating Layer res4b4_res4b4_relu_0_split
I0616 20:17:42.063650 55647 net.cpp:434] res4b4_res4b4_relu_0_split <- res4b4
I0616 20:17:42.063654 55647 net.cpp:408] res4b4_res4b4_relu_0_split -> res4b4_res4b4_relu_0_split_0
I0616 20:17:42.063659 55647 net.cpp:408] res4b4_res4b4_relu_0_split -> res4b4_res4b4_relu_0_split_1
I0616 20:17:42.063680 55647 net.cpp:150] Setting up res4b4_res4b4_relu_0_split
I0616 20:17:42.063684 55647 net.cpp:157] Top shape: 4 1024 20 20 (1638400)
I0616 20:17:42.063688 55647 net.cpp:157] Top shape: 4 1024 20 20 (1638400)
I0616 20:17:42.063691 55647 net.cpp:165] Memory required for data: 1790693856
I0616 20:17:42.063694 55647 layer_factory.hpp:77] Creating layer res4b5_branch2a
I0616 20:17:42.063699 55647 net.cpp:100] Creating Layer res4b5_branch2a
I0616 20:17:42.063702 55647 net.cpp:434] res4b5_branch2a <- res4b4_res4b4_relu_0_split_0
I0616 20:17:42.063706 55647 net.cpp:408] res4b5_branch2a -> res4b5_branch2a
I0616 20:17:42.065961 55647 net.cpp:150] Setting up res4b5_branch2a
I0616 20:17:42.065968 55647 net.cpp:157] Top shape: 4 256 20 20 (409600)
I0616 20:17:42.065973 55647 net.cpp:165] Memory required for data: 1792332256
I0616 20:17:42.065976 55647 layer_factory.hpp:77] Creating layer bn4b5_branch2a
I0616 20:17:42.065982 55647 net.cpp:100] Creating Layer bn4b5_branch2a
I0616 20:17:42.065986 55647 net.cpp:434] bn4b5_branch2a <- res4b5_branch2a
I0616 20:17:42.065990 55647 net.cpp:395] bn4b5_branch2a -> res4b5_branch2a (in-place)
I0616 20:17:42.066093 55647 net.cpp:150] Setting up bn4b5_branch2a
I0616 20:17:42.066097 55647 net.cpp:157] Top shape: 4 256 20 20 (409600)
I0616 20:17:42.066100 55647 net.cpp:165] Memory required for data: 1793970656
I0616 20:17:42.066107 55647 layer_factory.hpp:77] Creating layer scale4b5_branch2a
I0616 20:17:42.066112 55647 net.cpp:100] Creating Layer scale4b5_branch2a
I0616 20:17:42.066115 55647 net.cpp:434] scale4b5_branch2a <- res4b5_branch2a
I0616 20:17:42.066119 55647 net.cpp:395] scale4b5_branch2a -> res4b5_branch2a (in-place)
I0616 20:17:42.066144 55647 layer_factory.hpp:77] Creating layer scale4b5_branch2a
I0616 20:17:42.066202 55647 net.cpp:150] Setting up scale4b5_branch2a
I0616 20:17:42.066205 55647 net.cpp:157] Top shape: 4 256 20 20 (409600)
I0616 20:17:42.066208 55647 net.cpp:165] Memory required for data: 1795609056
I0616 20:17:42.066213 55647 layer_factory.hpp:77] Creating layer res4b5_branch2a_relu
I0616 20:17:42.066217 55647 net.cpp:100] Creating Layer res4b5_branch2a_relu
I0616 20:17:42.066220 55647 net.cpp:434] res4b5_branch2a_relu <- res4b5_branch2a
I0616 20:17:42.066223 55647 net.cpp:395] res4b5_branch2a_relu -> res4b5_branch2a (in-place)
I0616 20:17:42.066227 55647 net.cpp:150] Setting up res4b5_branch2a_relu
I0616 20:17:42.066231 55647 net.cpp:157] Top shape: 4 256 20 20 (409600)
I0616 20:17:42.066233 55647 net.cpp:165] Memory required for data: 1797247456
I0616 20:17:42.066236 55647 layer_factory.hpp:77] Creating layer res4b5_branch2b
I0616 20:17:42.066242 55647 net.cpp:100] Creating Layer res4b5_branch2b
I0616 20:17:42.066244 55647 net.cpp:434] res4b5_branch2b <- res4b5_branch2a
I0616 20:17:42.066248 55647 net.cpp:408] res4b5_branch2b -> res4b5_branch2b
I0616 20:17:42.070367 55647 net.cpp:150] Setting up res4b5_branch2b
I0616 20:17:42.070375 55647 net.cpp:157] Top shape: 4 256 20 20 (409600)
I0616 20:17:42.070379 55647 net.cpp:165] Memory required for data: 1798885856
I0616 20:17:42.070382 55647 layer_factory.hpp:77] Creating layer bn4b5_branch2b
I0616 20:17:42.070386 55647 net.cpp:100] Creating Layer bn4b5_branch2b
I0616 20:17:42.070390 55647 net.cpp:434] bn4b5_branch2b <- res4b5_branch2b
I0616 20:17:42.070394 55647 net.cpp:395] bn4b5_branch2b -> res4b5_branch2b (in-place)
I0616 20:17:42.070555 55647 net.cpp:150] Setting up bn4b5_branch2b
I0616 20:17:42.070564 55647 net.cpp:157] Top shape: 4 256 20 20 (409600)
I0616 20:17:42.070569 55647 net.cpp:165] Memory required for data: 1800524256
I0616 20:17:42.070574 55647 layer_factory.hpp:77] Creating layer scale4b5_branch2b
I0616 20:17:42.070581 55647 net.cpp:100] Creating Layer scale4b5_branch2b
I0616 20:17:42.070595 55647 net.cpp:434] scale4b5_branch2b <- res4b5_branch2b
I0616 20:17:42.070597 55647 net.cpp:395] scale4b5_branch2b -> res4b5_branch2b (in-place)
I0616 20:17:42.070636 55647 layer_factory.hpp:77] Creating layer scale4b5_branch2b
I0616 20:17:42.070729 55647 net.cpp:150] Setting up scale4b5_branch2b
I0616 20:17:42.070736 55647 net.cpp:157] Top shape: 4 256 20 20 (409600)
I0616 20:17:42.070741 55647 net.cpp:165] Memory required for data: 1802162656
I0616 20:17:42.070750 55647 layer_factory.hpp:77] Creating layer res4b5_branch2b_relu
I0616 20:17:42.070760 55647 net.cpp:100] Creating Layer res4b5_branch2b_relu
I0616 20:17:42.070762 55647 net.cpp:434] res4b5_branch2b_relu <- res4b5_branch2b
I0616 20:17:42.070765 55647 net.cpp:395] res4b5_branch2b_relu -> res4b5_branch2b (in-place)
I0616 20:17:42.070770 55647 net.cpp:150] Setting up res4b5_branch2b_relu
I0616 20:17:42.070771 55647 net.cpp:157] Top shape: 4 256 20 20 (409600)
I0616 20:17:42.070775 55647 net.cpp:165] Memory required for data: 1803801056
I0616 20:17:42.070776 55647 layer_factory.hpp:77] Creating layer res4b5_branch2c
I0616 20:17:42.070785 55647 net.cpp:100] Creating Layer res4b5_branch2c
I0616 20:17:42.070791 55647 net.cpp:434] res4b5_branch2c <- res4b5_branch2b
I0616 20:17:42.070796 55647 net.cpp:408] res4b5_branch2c -> res4b5_branch2c
I0616 20:17:42.072398 55647 net.cpp:150] Setting up res4b5_branch2c
I0616 20:17:42.072407 55647 net.cpp:157] Top shape: 4 1024 20 20 (1638400)
I0616 20:17:42.072410 55647 net.cpp:165] Memory required for data: 1810354656
I0616 20:17:42.072413 55647 layer_factory.hpp:77] Creating layer bn4b5_branch2c
I0616 20:17:42.072417 55647 net.cpp:100] Creating Layer bn4b5_branch2c
I0616 20:17:42.072419 55647 net.cpp:434] bn4b5_branch2c <- res4b5_branch2c
I0616 20:17:42.072422 55647 net.cpp:395] bn4b5_branch2c -> res4b5_branch2c (in-place)
I0616 20:17:42.072540 55647 net.cpp:150] Setting up bn4b5_branch2c
I0616 20:17:42.072546 55647 net.cpp:157] Top shape: 4 1024 20 20 (1638400)
I0616 20:17:42.072548 55647 net.cpp:165] Memory required for data: 1816908256
I0616 20:17:42.072553 55647 layer_factory.hpp:77] Creating layer scale4b5_branch2c
I0616 20:17:42.072557 55647 net.cpp:100] Creating Layer scale4b5_branch2c
I0616 20:17:42.072559 55647 net.cpp:434] scale4b5_branch2c <- res4b5_branch2c
I0616 20:17:42.072563 55647 net.cpp:395] scale4b5_branch2c -> res4b5_branch2c (in-place)
I0616 20:17:42.072583 55647 layer_factory.hpp:77] Creating layer scale4b5_branch2c
I0616 20:17:42.072667 55647 net.cpp:150] Setting up scale4b5_branch2c
I0616 20:17:42.072679 55647 net.cpp:157] Top shape: 4 1024 20 20 (1638400)
I0616 20:17:42.072685 55647 net.cpp:165] Memory required for data: 1823461856
I0616 20:17:42.072696 55647 layer_factory.hpp:77] Creating layer res4b5
I0616 20:17:42.072703 55647 net.cpp:100] Creating Layer res4b5
I0616 20:17:42.072706 55647 net.cpp:434] res4b5 <- res4b4_res4b4_relu_0_split_1
I0616 20:17:42.072710 55647 net.cpp:434] res4b5 <- res4b5_branch2c
I0616 20:17:42.072715 55647 net.cpp:408] res4b5 -> res4b5
I0616 20:17:42.072733 55647 net.cpp:150] Setting up res4b5
I0616 20:17:42.072742 55647 net.cpp:157] Top shape: 4 1024 20 20 (1638400)
I0616 20:17:42.072765 55647 net.cpp:165] Memory required for data: 1830015456
I0616 20:17:42.072769 55647 layer_factory.hpp:77] Creating layer res4b5_relu
I0616 20:17:42.072775 55647 net.cpp:100] Creating Layer res4b5_relu
I0616 20:17:42.072779 55647 net.cpp:434] res4b5_relu <- res4b5
I0616 20:17:42.072784 55647 net.cpp:395] res4b5_relu -> res4b5 (in-place)
I0616 20:17:42.072790 55647 net.cpp:150] Setting up res4b5_relu
I0616 20:17:42.072794 55647 net.cpp:157] Top shape: 4 1024 20 20 (1638400)
I0616 20:17:42.072798 55647 net.cpp:165] Memory required for data: 1836569056
I0616 20:17:42.072801 55647 layer_factory.hpp:77] Creating layer res4b5_res4b5_relu_0_split
I0616 20:17:42.072808 55647 net.cpp:100] Creating Layer res4b5_res4b5_relu_0_split
I0616 20:17:42.072811 55647 net.cpp:434] res4b5_res4b5_relu_0_split <- res4b5
I0616 20:17:42.072814 55647 net.cpp:408] res4b5_res4b5_relu_0_split -> res4b5_res4b5_relu_0_split_0
I0616 20:17:42.072820 55647 net.cpp:408] res4b5_res4b5_relu_0_split -> res4b5_res4b5_relu_0_split_1
I0616 20:17:42.072845 55647 net.cpp:150] Setting up res4b5_res4b5_relu_0_split
I0616 20:17:42.072849 55647 net.cpp:157] Top shape: 4 1024 20 20 (1638400)
I0616 20:17:42.072854 55647 net.cpp:157] Top shape: 4 1024 20 20 (1638400)
I0616 20:17:42.072856 55647 net.cpp:165] Memory required for data: 1849676256
I0616 20:17:42.072858 55647 layer_factory.hpp:77] Creating layer res4b6_branch2a
I0616 20:17:42.072866 55647 net.cpp:100] Creating Layer res4b6_branch2a
I0616 20:17:42.072870 55647 net.cpp:434] res4b6_branch2a <- res4b5_res4b5_relu_0_split_0
I0616 20:17:42.072875 55647 net.cpp:408] res4b6_branch2a -> res4b6_branch2a
I0616 20:17:42.075146 55647 net.cpp:150] Setting up res4b6_branch2a
I0616 20:17:42.075156 55647 net.cpp:157] Top shape: 4 256 20 20 (409600)
I0616 20:17:42.075163 55647 net.cpp:165] Memory required for data: 1851314656
I0616 20:17:42.075168 55647 layer_factory.hpp:77] Creating layer bn4b6_branch2a
I0616 20:17:42.075176 55647 net.cpp:100] Creating Layer bn4b6_branch2a
I0616 20:17:42.075179 55647 net.cpp:434] bn4b6_branch2a <- res4b6_branch2a
I0616 20:17:42.075184 55647 net.cpp:395] bn4b6_branch2a -> res4b6_branch2a (in-place)
I0616 20:17:42.075294 55647 net.cpp:150] Setting up bn4b6_branch2a
I0616 20:17:42.075302 55647 net.cpp:157] Top shape: 4 256 20 20 (409600)
I0616 20:17:42.075309 55647 net.cpp:165] Memory required for data: 1852953056
I0616 20:17:42.075316 55647 layer_factory.hpp:77] Creating layer scale4b6_branch2a
I0616 20:17:42.075323 55647 net.cpp:100] Creating Layer scale4b6_branch2a
I0616 20:17:42.075327 55647 net.cpp:434] scale4b6_branch2a <- res4b6_branch2a
I0616 20:17:42.075335 55647 net.cpp:395] scale4b6_branch2a -> res4b6_branch2a (in-place)
I0616 20:17:42.075368 55647 layer_factory.hpp:77] Creating layer scale4b6_branch2a
I0616 20:17:42.075434 55647 net.cpp:150] Setting up scale4b6_branch2a
I0616 20:17:42.075439 55647 net.cpp:157] Top shape: 4 256 20 20 (409600)
I0616 20:17:42.075443 55647 net.cpp:165] Memory required for data: 1854591456
I0616 20:17:42.075446 55647 layer_factory.hpp:77] Creating layer res4b6_branch2a_relu
I0616 20:17:42.075450 55647 net.cpp:100] Creating Layer res4b6_branch2a_relu
I0616 20:17:42.075453 55647 net.cpp:434] res4b6_branch2a_relu <- res4b6_branch2a
I0616 20:17:42.075457 55647 net.cpp:395] res4b6_branch2a_relu -> res4b6_branch2a (in-place)
I0616 20:17:42.075464 55647 net.cpp:150] Setting up res4b6_branch2a_relu
I0616 20:17:42.075465 55647 net.cpp:157] Top shape: 4 256 20 20 (409600)
I0616 20:17:42.075469 55647 net.cpp:165] Memory required for data: 1856229856
I0616 20:17:42.075469 55647 layer_factory.hpp:77] Creating layer res4b6_branch2b
I0616 20:17:42.075474 55647 net.cpp:100] Creating Layer res4b6_branch2b
I0616 20:17:42.075476 55647 net.cpp:434] res4b6_branch2b <- res4b6_branch2a
I0616 20:17:42.075479 55647 net.cpp:408] res4b6_branch2b -> res4b6_branch2b
I0616 20:17:42.079736 55647 net.cpp:150] Setting up res4b6_branch2b
I0616 20:17:42.079744 55647 net.cpp:157] Top shape: 4 256 20 20 (409600)
I0616 20:17:42.079748 55647 net.cpp:165] Memory required for data: 1857868256
I0616 20:17:42.079763 55647 layer_factory.hpp:77] Creating layer bn4b6_branch2b
I0616 20:17:42.079767 55647 net.cpp:100] Creating Layer bn4b6_branch2b
I0616 20:17:42.079771 55647 net.cpp:434] bn4b6_branch2b <- res4b6_branch2b
I0616 20:17:42.079773 55647 net.cpp:395] bn4b6_branch2b -> res4b6_branch2b (in-place)
I0616 20:17:42.079883 55647 net.cpp:150] Setting up bn4b6_branch2b
I0616 20:17:42.079890 55647 net.cpp:157] Top shape: 4 256 20 20 (409600)
I0616 20:17:42.079893 55647 net.cpp:165] Memory required for data: 1859506656
I0616 20:17:42.079896 55647 layer_factory.hpp:77] Creating layer scale4b6_branch2b
I0616 20:17:42.079900 55647 net.cpp:100] Creating Layer scale4b6_branch2b
I0616 20:17:42.079903 55647 net.cpp:434] scale4b6_branch2b <- res4b6_branch2b
I0616 20:17:42.079906 55647 net.cpp:395] scale4b6_branch2b -> res4b6_branch2b (in-place)
I0616 20:17:42.079926 55647 layer_factory.hpp:77] Creating layer scale4b6_branch2b
I0616 20:17:42.079983 55647 net.cpp:150] Setting up scale4b6_branch2b
I0616 20:17:42.079988 55647 net.cpp:157] Top shape: 4 256 20 20 (409600)
I0616 20:17:42.079991 55647 net.cpp:165] Memory required for data: 1861145056
I0616 20:17:42.079995 55647 layer_factory.hpp:77] Creating layer res4b6_branch2b_relu
I0616 20:17:42.079999 55647 net.cpp:100] Creating Layer res4b6_branch2b_relu
I0616 20:17:42.080005 55647 net.cpp:434] res4b6_branch2b_relu <- res4b6_branch2b
I0616 20:17:42.080009 55647 net.cpp:395] res4b6_branch2b_relu -> res4b6_branch2b (in-place)
I0616 20:17:42.080014 55647 net.cpp:150] Setting up res4b6_branch2b_relu
I0616 20:17:42.080018 55647 net.cpp:157] Top shape: 4 256 20 20 (409600)
I0616 20:17:42.080021 55647 net.cpp:165] Memory required for data: 1862783456
I0616 20:17:42.080024 55647 layer_factory.hpp:77] Creating layer res4b6_branch2c
I0616 20:17:42.080029 55647 net.cpp:100] Creating Layer res4b6_branch2c
I0616 20:17:42.080032 55647 net.cpp:434] res4b6_branch2c <- res4b6_branch2b
I0616 20:17:42.080035 55647 net.cpp:408] res4b6_branch2c -> res4b6_branch2c
I0616 20:17:42.081612 55647 net.cpp:150] Setting up res4b6_branch2c
I0616 20:17:42.081619 55647 net.cpp:157] Top shape: 4 1024 20 20 (1638400)
I0616 20:17:42.081621 55647 net.cpp:165] Memory required for data: 1869337056
I0616 20:17:42.081624 55647 layer_factory.hpp:77] Creating layer bn4b6_branch2c
I0616 20:17:42.081629 55647 net.cpp:100] Creating Layer bn4b6_branch2c
I0616 20:17:42.081631 55647 net.cpp:434] bn4b6_branch2c <- res4b6_branch2c
I0616 20:17:42.081634 55647 net.cpp:395] bn4b6_branch2c -> res4b6_branch2c (in-place)
I0616 20:17:42.081734 55647 net.cpp:150] Setting up bn4b6_branch2c
I0616 20:17:42.081739 55647 net.cpp:157] Top shape: 4 1024 20 20 (1638400)
I0616 20:17:42.081743 55647 net.cpp:165] Memory required for data: 1875890656
I0616 20:17:42.081746 55647 layer_factory.hpp:77] Creating layer scale4b6_branch2c
I0616 20:17:42.081750 55647 net.cpp:100] Creating Layer scale4b6_branch2c
I0616 20:17:42.081753 55647 net.cpp:434] scale4b6_branch2c <- res4b6_branch2c
I0616 20:17:42.081755 55647 net.cpp:395] scale4b6_branch2c -> res4b6_branch2c (in-place)
I0616 20:17:42.081775 55647 layer_factory.hpp:77] Creating layer scale4b6_branch2c
I0616 20:17:42.081833 55647 net.cpp:150] Setting up scale4b6_branch2c
I0616 20:17:42.081838 55647 net.cpp:157] Top shape: 4 1024 20 20 (1638400)
I0616 20:17:42.081840 55647 net.cpp:165] Memory required for data: 1882444256
I0616 20:17:42.081843 55647 layer_factory.hpp:77] Creating layer res4b6
I0616 20:17:42.081848 55647 net.cpp:100] Creating Layer res4b6
I0616 20:17:42.081851 55647 net.cpp:434] res4b6 <- res4b5_res4b5_relu_0_split_1
I0616 20:17:42.081853 55647 net.cpp:434] res4b6 <- res4b6_branch2c
I0616 20:17:42.081856 55647 net.cpp:408] res4b6 -> res4b6
I0616 20:17:42.081869 55647 net.cpp:150] Setting up res4b6
I0616 20:17:42.081874 55647 net.cpp:157] Top shape: 4 1024 20 20 (1638400)
I0616 20:17:42.081882 55647 net.cpp:165] Memory required for data: 1888997856
I0616 20:17:42.081885 55647 layer_factory.hpp:77] Creating layer res4b6_relu
I0616 20:17:42.081902 55647 net.cpp:100] Creating Layer res4b6_relu
I0616 20:17:42.081905 55647 net.cpp:434] res4b6_relu <- res4b6
I0616 20:17:42.081909 55647 net.cpp:395] res4b6_relu -> res4b6 (in-place)
I0616 20:17:42.081914 55647 net.cpp:150] Setting up res4b6_relu
I0616 20:17:42.081918 55647 net.cpp:157] Top shape: 4 1024 20 20 (1638400)
I0616 20:17:42.081923 55647 net.cpp:165] Memory required for data: 1895551456
I0616 20:17:42.081931 55647 layer_factory.hpp:77] Creating layer res4b6_res4b6_relu_0_split
I0616 20:17:42.081935 55647 net.cpp:100] Creating Layer res4b6_res4b6_relu_0_split
I0616 20:17:42.081939 55647 net.cpp:434] res4b6_res4b6_relu_0_split <- res4b6
I0616 20:17:42.081944 55647 net.cpp:408] res4b6_res4b6_relu_0_split -> res4b6_res4b6_relu_0_split_0
I0616 20:17:42.081951 55647 net.cpp:408] res4b6_res4b6_relu_0_split -> res4b6_res4b6_relu_0_split_1
I0616 20:17:42.081990 55647 net.cpp:150] Setting up res4b6_res4b6_relu_0_split
I0616 20:17:42.082000 55647 net.cpp:157] Top shape: 4 1024 20 20 (1638400)
I0616 20:17:42.082003 55647 net.cpp:157] Top shape: 4 1024 20 20 (1638400)
I0616 20:17:42.082006 55647 net.cpp:165] Memory required for data: 1908658656
I0616 20:17:42.082008 55647 layer_factory.hpp:77] Creating layer res4b7_branch2a
I0616 20:17:42.082015 55647 net.cpp:100] Creating Layer res4b7_branch2a
I0616 20:17:42.082017 55647 net.cpp:434] res4b7_branch2a <- res4b6_res4b6_relu_0_split_0
I0616 20:17:42.082022 55647 net.cpp:408] res4b7_branch2a -> res4b7_branch2a
I0616 20:17:42.084949 55647 net.cpp:150] Setting up res4b7_branch2a
I0616 20:17:42.084957 55647 net.cpp:157] Top shape: 4 256 20 20 (409600)
I0616 20:17:42.084961 55647 net.cpp:165] Memory required for data: 1910297056
I0616 20:17:42.084966 55647 layer_factory.hpp:77] Creating layer bn4b7_branch2a
…
I0616 20:17:43.088822 55647 net.cpp:408] rescombined_8_EltwisePROD_relu_inter256_rescombined_8_EltwisePROD_relu_inter256_relu_0_split -> rescombined_8_EltwisePROD_relu_inter256_rescombined_8_EltwisePROD_relu_inter256_relu_0_split_1
I0616 20:17:43.088827 55647 net.cpp:408] rescombined_8_EltwisePROD_relu_inter256_rescombined_8_EltwisePROD_relu_inter256_relu_0_split -> rescombined_8_EltwisePROD_relu_inter256_rescombined_8_EltwisePROD_relu_inter256_relu_0_split_2
I0616 20:17:43.088860 55647 net.cpp:150] Setting up rescombined_8_EltwisePROD_relu_inter256_rescombined_8_EltwisePROD_relu_inter256_relu_0_split
I0616 20:17:43.088865 55647 net.cpp:157] Top shape: 4 1024 3 3 (36864)
I0616 20:17:43.088867 55647 net.cpp:157] Top shape: 4 1024 3 3 (36864)
I0616 20:17:43.088871 55647 net.cpp:157] Top shape: 4 1024 3 3 (36864)
I0616 20:17:43.088876 55647 net.cpp:165] Memory required for data: 4008579552
I0616 20:17:43.088879 55647 layer_factory.hpp:77] Creating layer resres9_relu_inter256_branch1
I0616 20:17:43.088886 55647 net.cpp:100] Creating Layer resres9_relu_inter256_branch1
I0616 20:17:43.088891 55647 net.cpp:434] resres9_relu_inter256_branch1 <- res9_res9_relu_0_split_1
I0616 20:17:43.088896 55647 net.cpp:408] resres9_relu_inter256_branch1 -> resres9_relu_inter256_branch1
I0616 20:17:43.096103 55647 net.cpp:150] Setting up resres9_relu_inter256_branch1
I0616 20:17:43.096112 55647 net.cpp:157] Top shape: 4 1024 1 1 (4096)
I0616 20:17:43.096115 55647 net.cpp:165] Memory required for data: 4008595936
I0616 20:17:43.096120 55647 layer_factory.hpp:77] Creating layer bnres9_relu_inter256_branch1
I0616 20:17:43.096127 55647 net.cpp:100] Creating Layer bnres9_relu_inter256_branch1
I0616 20:17:43.096132 55647 net.cpp:434] bnres9_relu_inter256_branch1 <- resres9_relu_inter256_branch1
I0616 20:17:43.096137 55647 net.cpp:395] bnres9_relu_inter256_branch1 -> resres9_relu_inter256_branch1 (in-place)
I0616 20:17:43.096243 55647 net.cpp:150] Setting up bnres9_relu_inter256_branch1
I0616 20:17:43.096248 55647 net.cpp:157] Top shape: 4 1024 1 1 (4096)
I0616 20:17:43.096252 55647 net.cpp:165] Memory required for data: 4008612320
I0616 20:17:43.096257 55647 layer_factory.hpp:77] Creating layer scaleres9_relu_inter256_branch1
I0616 20:17:43.096264 55647 net.cpp:100] Creating Layer scaleres9_relu_inter256_branch1
I0616 20:17:43.096267 55647 net.cpp:434] scaleres9_relu_inter256_branch1 <- resres9_relu_inter256_branch1
I0616 20:17:43.096274 55647 net.cpp:395] scaleres9_relu_inter256_branch1 -> resres9_relu_inter256_branch1 (in-place)
I0616 20:17:43.096299 55647 layer_factory.hpp:77] Creating layer scaleres9_relu_inter256_branch1
I0616 20:17:43.096360 55647 net.cpp:150] Setting up scaleres9_relu_inter256_branch1
I0616 20:17:43.096374 55647 net.cpp:157] Top shape: 4 1024 1 1 (4096)
I0616 20:17:43.096379 55647 net.cpp:165] Memory required for data: 4008628704
I0616 20:17:43.096383 55647 layer_factory.hpp:77] Creating layer resres9_relu_inter256_branch2a
I0616 20:17:43.096391 55647 net.cpp:100] Creating Layer resres9_relu_inter256_branch2a
I0616 20:17:43.096396 55647 net.cpp:434] resres9_relu_inter256_branch2a <- res9_res9_relu_0_split_2
I0616 20:17:43.096401 55647 net.cpp:408] resres9_relu_inter256_branch2a -> resres9_relu_inter256_branch2a
I0616 20:17:43.097993 55647 net.cpp:150] Setting up resres9_relu_inter256_branch2a
I0616 20:17:43.097999 55647 net.cpp:157] Top shape: 4 256 1 1 (1024)
I0616 20:17:43.098003 55647 net.cpp:165] Memory required for data: 4008632800
I0616 20:17:43.098006 55647 layer_factory.hpp:77] Creating layer bnres9_relu_inter256_branch2a
I0616 20:17:43.098009 55647 net.cpp:100] Creating Layer bnres9_relu_inter256_branch2a
I0616 20:17:43.098012 55647 net.cpp:434] bnres9_relu_inter256_branch2a <- resres9_relu_inter256_branch2a
I0616 20:17:43.098016 55647 net.cpp:395] bnres9_relu_inter256_branch2a -> resres9_relu_inter256_branch2a (in-place)
I0616 20:17:43.098120 55647 net.cpp:150] Setting up bnres9_relu_inter256_branch2a
I0616 20:17:43.098125 55647 net.cpp:157] Top shape: 4 256 1 1 (1024)
I0616 20:17:43.098127 55647 net.cpp:165] Memory required for data: 4008636896
I0616 20:17:43.098131 55647 layer_factory.hpp:77] Creating layer scaleres9_relu_inter256_branch2a
I0616 20:17:43.098137 55647 net.cpp:100] Creating Layer scaleres9_relu_inter256_branch2a
I0616 20:17:43.098140 55647 net.cpp:434] scaleres9_relu_inter256_branch2a <- resres9_relu_inter256_branch2a
I0616 20:17:43.098145 55647 net.cpp:395] scaleres9_relu_inter256_branch2a -> resres9_relu_inter256_branch2a (in-place)
I0616 20:17:43.098168 55647 layer_factory.hpp:77] Creating layer scaleres9_relu_inter256_branch2a
I0616 20:17:43.098227 55647 net.cpp:150] Setting up scaleres9_relu_inter256_branch2a
I0616 20:17:43.098232 55647 net.cpp:157] Top shape: 4 256 1 1 (1024)
I0616 20:17:43.098233 55647 net.cpp:165] Memory required for data: 4008640992
I0616 20:17:43.098237 55647 layer_factory.hpp:77] Creating layer resres9_relu_inter256_branch2a_relu
I0616 20:17:43.098242 55647 net.cpp:100] Creating Layer resres9_relu_inter256_branch2a_relu
I0616 20:17:43.098244 55647 net.cpp:434] resres9_relu_inter256_branch2a_relu <- resres9_relu_inter256_branch2a
I0616 20:17:43.098248 55647 net.cpp:395] resres9_relu_inter256_branch2a_relu -> resres9_relu_inter256_branch2a (in-place)
I0616 20:17:43.098253 55647 net.cpp:150] Setting up resres9_relu_inter256_branch2a_relu
I0616 20:17:43.098255 55647 net.cpp:157] Top shape: 4 256 1 1 (1024)
I0616 20:17:43.098263 55647 net.cpp:165] Memory required for data: 4008645088
I0616 20:17:43.098265 55647 layer_factory.hpp:77] Creating layer resres9_relu_inter256_branch2b
I0616 20:17:43.098270 55647 net.cpp:100] Creating Layer resres9_relu_inter256_branch2b
I0616 20:17:43.098273 55647 net.cpp:434] resres9_relu_inter256_branch2b <- resres9_relu_inter256_branch2a
I0616 20:17:43.098278 55647 net.cpp:408] resres9_relu_inter256_branch2b -> resres9_relu_inter256_branch2b
I0616 20:17:43.102424 55647 net.cpp:150] Setting up resres9_relu_inter256_branch2b
I0616 20:17:43.102432 55647 net.cpp:157] Top shape: 4 256 1 1 (1024)
I0616 20:17:43.102435 55647 net.cpp:165] Memory required for data: 4008649184
I0616 20:17:43.102439 55647 layer_factory.hpp:77] Creating layer bnres9_relu_inter256_branch2b
I0616 20:17:43.102444 55647 net.cpp:100] Creating Layer bnres9_relu_inter256_branch2b
I0616 20:17:43.102449 55647 net.cpp:434] bnres9_relu_inter256_branch2b <- resres9_relu_inter256_branch2b
I0616 20:17:43.102454 55647 net.cpp:395] bnres9_relu_inter256_branch2b -> resres9_relu_inter256_branch2b (in-place)
I0616 20:17:43.102560 55647 net.cpp:150] Setting up bnres9_relu_inter256_branch2b
I0616 20:17:43.102563 55647 net.cpp:157] Top shape: 4 256 1 1 (1024)
I0616 20:17:43.102566 55647 net.cpp:165] Memory required for data: 4008653280
I0616 20:17:43.102583 55647 layer_factory.hpp:77] Creating layer scaleres9_relu_inter256_branch2b
I0616 20:17:43.102588 55647 net.cpp:100] Creating Layer scaleres9_relu_inter256_branch2b
I0616 20:17:43.102591 55647 net.cpp:434] scaleres9_relu_inter256_branch2b <- resres9_relu_inter256_branch2b
I0616 20:17:43.102596 55647 net.cpp:395] scaleres9_relu_inter256_branch2b -> resres9_relu_inter256_branch2b (in-place)
I0616 20:17:43.102622 55647 layer_factory.hpp:77] Creating layer scaleres9_relu_inter256_branch2b
I0616 20:17:43.102684 55647 net.cpp:150] Setting up scaleres9_relu_inter256_branch2b
I0616 20:17:43.102687 55647 net.cpp:157] Top shape: 4 256 1 1 (1024)
I0616 20:17:43.102691 55647 net.cpp:165] Memory required for data: 4008657376
I0616 20:17:43.102695 55647 layer_factory.hpp:77] Creating layer resres9_relu_inter256_branch2b_relu
I0616 20:17:43.102700 55647 net.cpp:100] Creating Layer resres9_relu_inter256_branch2b_relu
I0616 20:17:43.102703 55647 net.cpp:434] resres9_relu_inter256_branch2b_relu <- resres9_relu_inter256_branch2b
I0616 20:17:43.102707 55647 net.cpp:395] resres9_relu_inter256_branch2b_relu -> resres9_relu_inter256_branch2b (in-place)
I0616 20:17:43.102711 55647 net.cpp:150] Setting up resres9_relu_inter256_branch2b_relu
I0616 20:17:43.102715 55647 net.cpp:157] Top shape: 4 256 1 1 (1024)
I0616 20:17:43.102717 55647 net.cpp:165] Memory required for data: 4008661472
I0616 20:17:43.102720 55647 layer_factory.hpp:77] Creating layer resres9_relu_inter256_branch2c
I0616 20:17:43.102726 55647 net.cpp:100] Creating Layer resres9_relu_inter256_branch2c
I0616 20:17:43.102732 55647 net.cpp:434] resres9_relu_inter256_branch2c <- resres9_relu_inter256_branch2b
I0616 20:17:43.102736 55647 net.cpp:408] resres9_relu_inter256_branch2c -> resres9_relu_inter256_branch2c
I0616 20:17:43.104969 55647 net.cpp:150] Setting up resres9_relu_inter256_branch2c
I0616 20:17:43.104977 55647 net.cpp:157] Top shape: 4 1024 1 1 (4096)
I0616 20:17:43.104981 55647 net.cpp:165] Memory required for data: 4008677856
I0616 20:17:43.104985 55647 layer_factory.hpp:77] Creating layer bnres9_relu_inter256_branch2c
I0616 20:17:43.104992 55647 net.cpp:100] Creating Layer bnres9_relu_inter256_branch2c
I0616 20:17:43.104996 55647 net.cpp:434] bnres9_relu_inter256_branch2c <- resres9_relu_inter256_branch2c
I0616 20:17:43.105000 55647 net.cpp:395] bnres9_relu_inter256_branch2c -> resres9_relu_inter256_branch2c (in-place)
I0616 20:17:43.105108 55647 net.cpp:150] Setting up bnres9_relu_inter256_branch2c
I0616 20:17:43.105113 55647 net.cpp:157] Top shape: 4 1024 1 1 (4096)
I0616 20:17:43.105116 55647 net.cpp:165] Memory required for data: 4008694240
I0616 20:17:43.105121 55647 layer_factory.hpp:77] Creating layer scaleres9_relu_inter256_branch2c
I0616 20:17:43.105127 55647 net.cpp:100] Creating Layer scaleres9_relu_inter256_branch2c
I0616 20:17:43.105131 55647 net.cpp:434] scaleres9_relu_inter256_branch2c <- resres9_relu_inter256_branch2c
I0616 20:17:43.105135 55647 net.cpp:395] scaleres9_relu_inter256_branch2c -> resres9_relu_inter256_branch2c (in-place)
I0616 20:17:43.105162 55647 layer_factory.hpp:77] Creating layer scaleres9_relu_inter256_branch2c
I0616 20:17:43.105226 55647 net.cpp:150] Setting up scaleres9_relu_inter256_branch2c
I0616 20:17:43.105229 55647 net.cpp:157] Top shape: 4 1024 1 1 (4096)
I0616 20:17:43.105232 55647 net.cpp:165] Memory required for data: 4008710624
I0616 20:17:43.105237 55647 layer_factory.hpp:77] Creating layer resres9_relu_inter256
I0616 20:17:43.105243 55647 net.cpp:100] Creating Layer resres9_relu_inter256
I0616 20:17:43.105247 55647 net.cpp:434] resres9_relu_inter256 <- resres9_relu_inter256_branch1
I0616 20:17:43.105252 55647 net.cpp:434] resres9_relu_inter256 <- resres9_relu_inter256_branch2c
I0616 20:17:43.105255 55647 net.cpp:408] resres9_relu_inter256 -> resres9_relu_inter256
I0616 20:17:43.105273 55647 net.cpp:150] Setting up resres9_relu_inter256
I0616 20:17:43.105275 55647 net.cpp:157] Top shape: 4 1024 1 1 (4096)
I0616 20:17:43.105278 55647 net.cpp:165] Memory required for data: 4008727008
I0616 20:17:43.105281 55647 layer_factory.hpp:77] Creating layer resres9_relu_inter256_relu
I0616 20:17:43.105298 55647 net.cpp:100] Creating Layer resres9_relu_inter256_relu
I0616 20:17:43.105300 55647 net.cpp:434] resres9_relu_inter256_relu <- resres9_relu_inter256
I0616 20:17:43.105304 55647 net.cpp:395] resres9_relu_inter256_relu -> resres9_relu_inter256 (in-place)
I0616 20:17:43.105309 55647 net.cpp:150] Setting up resres9_relu_inter256_relu
I0616 20:17:43.105311 55647 net.cpp:157] Top shape: 4 1024 1 1 (4096)
I0616 20:17:43.105314 55647 net.cpp:165] Memory required for data: 4008743392
I0616 20:17:43.105317 55647 layer_factory.hpp:77] Creating layer resres9_relu_inter256_resres9_relu_inter256_relu_0_split
I0616 20:17:43.105322 55647 net.cpp:100] Creating Layer resres9_relu_inter256_resres9_relu_inter256_relu_0_split
I0616 20:17:43.105324 55647 net.cpp:434] resres9_relu_inter256_resres9_relu_inter256_relu_0_split <- resres9_relu_inter256
I0616 20:17:43.105329 55647 net.cpp:408] resres9_relu_inter256_resres9_relu_inter256_relu_0_split -> resres9_relu_inter256_resres9_relu_inter256_relu_0_split_0
I0616 20:17:43.105334 55647 net.cpp:408] resres9_relu_inter256_resres9_relu_inter256_relu_0_split -> resres9_relu_inter256_resres9_relu_inter256_relu_0_split_1
I0616 20:17:43.105341 55647 net.cpp:408] resres9_relu_inter256_resres9_relu_inter256_relu_0_split -> resres9_relu_inter256_resres9_relu_inter256_relu_0_split_2
I0616 20:17:43.105371 55647 net.cpp:150] Setting up resres9_relu_inter256_resres9_relu_inter256_relu_0_split
I0616 20:17:43.105376 55647 net.cpp:157] Top shape: 4 1024 1 1 (4096)
I0616 20:17:43.105378 55647 net.cpp:157] Top shape: 4 1024 1 1 (4096)
I0616 20:17:43.105382 55647 net.cpp:157] Top shape: 4 1024 1 1 (4096)
I0616 20:17:43.105386 55647 net.cpp:165] Memory required for data: 4008792544
I0616 20:17:43.105388 55647 layer_factory.hpp:77] Creating layer rescombined_3_EltwisePROD_relu_inter256_mbox_locnew
I0616 20:17:43.105394 55647 net.cpp:100] Creating Layer rescombined_3_EltwisePROD_relu_inter256_mbox_locnew
I0616 20:17:43.105398 55647 net.cpp:434] rescombined_3_EltwisePROD_relu_inter256_mbox_locnew <- rescombined_3_EltwisePROD_relu_inter256_rescombined_3_EltwisePROD_relu_inter256_relu_0_split_0
I0616 20:17:43.105404 55647 net.cpp:408] rescombined_3_EltwisePROD_relu_inter256_mbox_locnew -> rescombined_3_EltwisePROD_relu_inter256_mbox_locnew
I0616 20:17:43.109303 55647 net.cpp:150] Setting up rescombined_3_EltwisePROD_relu_inter256_mbox_locnew
I0616 20:17:43.109311 55647 net.cpp:157] Top shape: 4 32 40 40 (204800)
I0616 20:17:43.109315 55647 net.cpp:165] Memory required for data: 4009611744
I0616 20:17:43.109320 55647 layer_factory.hpp:77] Creating layer rescombined_3_EltwisePROD_relu_inter256_mbox_confnew
I0616 20:17:43.109333 55647 net.cpp:100] Creating Layer rescombined_3_EltwisePROD_relu_inter256_mbox_confnew
I0616 20:17:43.109338 55647 net.cpp:434] rescombined_3_EltwisePROD_relu_inter256_mbox_confnew <- rescombined_3_EltwisePROD_relu_inter256_rescombined_3_EltwisePROD_relu_inter256_relu_0_split_1
I0616 20:17:43.109344 55647 net.cpp:408] rescombined_3_EltwisePROD_relu_inter256_mbox_confnew -> rescombined_3_EltwisePROD_relu_inter256_mbox_confnew
I0616 20:17:43.129557 55647 net.cpp:150] Setting up rescombined_3_EltwisePROD_relu_inter256_mbox_confnew
I0616 20:17:43.129576 55647 net.cpp:157] Top shape: 4 168 40 40 (1075200)
I0616 20:17:43.129582 55647 net.cpp:165] Memory required for data: 4013912544
I0616 20:17:43.129590 55647 layer_factory.hpp:77] Creating layer rescombined_3_EltwisePROD_relu_inter256_mbox_priorbox
I0616 20:17:43.129614 55647 net.cpp:100] Creating Layer rescombined_3_EltwisePROD_relu_inter256_mbox_priorbox
I0616 20:17:43.129622 55647 net.cpp:434] rescombined_3_EltwisePROD_relu_inter256_mbox_priorbox <- rescombined_3_EltwisePROD_relu_inter256_rescombined_3_EltwisePROD_relu_inter256_relu_0_split_2
I0616 20:17:43.129629 55647 net.cpp:434] rescombined_3_EltwisePROD_relu_inter256_mbox_priorbox <- data_data_0_split_1
I0616 20:17:43.129639 55647 net.cpp:408] rescombined_3_EltwisePROD_relu_inter256_mbox_priorbox -> rescombined_3_EltwisePROD_relu_inter256_mbox_priorbox
I0616 20:17:43.129694 55647 net.cpp:150] Setting up rescombined_3_EltwisePROD_relu_inter256_mbox_priorbox
I0616 20:17:43.129698 55647 net.cpp:157] Top shape: 1 2 51200 (102400)
I0616 20:17:43.129701 55647 net.cpp:165] Memory required for data: 4014322144
I0616 20:17:43.129703 55647 layer_factory.hpp:77] Creating layer rescombined_5_EltwisePROD_relu_inter256_mbox_locnew
I0616 20:17:43.129714 55647 net.cpp:100] Creating Layer rescombined_5_EltwisePROD_relu_inter256_mbox_locnew
I0616 20:17:43.129719 55647 net.cpp:434] rescombined_5_EltwisePROD_relu_inter256_mbox_locnew <- rescombined_5_EltwisePROD_relu_inter256_rescombined_5_EltwisePROD_relu_inter256_relu_0_split_0
I0616 20:17:43.129724 55647 net.cpp:408] rescombined_5_EltwisePROD_relu_inter256_mbox_locnew -> rescombined_5_EltwisePROD_relu_inter256_mbox_locnew
I0616 20:17:43.133744 55647 net.cpp:150] Setting up rescombined_5_EltwisePROD_relu_inter256_mbox_locnew
I0616 20:17:43.133751 55647 net.cpp:157] Top shape: 4 32 20 20 (51200)
I0616 20:17:43.133754 55647 net.cpp:165] Memory required for data: 4014526944
I0616 20:17:43.133759 55647 layer_factory.hpp:77] Creating layer rescombined_5_EltwisePROD_relu_inter256_mbox_confnew
I0616 20:17:43.133765 55647 net.cpp:100] Creating Layer rescombined_5_EltwisePROD_relu_inter256_mbox_confnew
I0616 20:17:43.133770 55647 net.cpp:434] rescombined_5_EltwisePROD_relu_inter256_mbox_confnew <- rescombined_5_EltwisePROD_relu_inter256_rescombined_5_EltwisePROD_relu_inter256_relu_0_split_1
I0616 20:17:43.133777 55647 net.cpp:408] rescombined_5_EltwisePROD_relu_inter256_mbox_confnew -> rescombined_5_EltwisePROD_relu_inter256_mbox_confnew
I0616 20:17:43.153935 55647 net.cpp:150] Setting up rescombined_5_EltwisePROD_relu_inter256_mbox_confnew
I0616 20:17:43.153954 55647 net.cpp:157] Top shape: 4 168 20 20 (268800)
I0616 20:17:43.153961 55647 net.cpp:165] Memory required for data: 4015602144
I0616 20:17:43.153970 55647 layer_factory.hpp:77] Creating layer rescombined_5_EltwisePROD_relu_inter256_mbox_priorbox
I0616 20:17:43.153995 55647 net.cpp:100] Creating Layer rescombined_5_EltwisePROD_relu_inter256_mbox_priorbox
I0616 20:17:43.154001 55647 net.cpp:434] rescombined_5_EltwisePROD_relu_inter256_mbox_priorbox <- rescombined_5_EltwisePROD_relu_inter256_rescombined_5_EltwisePROD_relu_inter256_relu_0_split_2
I0616 20:17:43.154009 55647 net.cpp:434] rescombined_5_EltwisePROD_relu_inter256_mbox_priorbox <- data_data_0_split_2
I0616 20:17:43.154016 55647 net.cpp:408] rescombined_5_EltwisePROD_relu_inter256_mbox_priorbox -> rescombined_5_EltwisePROD_relu_inter256_mbox_priorbox
I0616 20:17:43.154043 55647 net.cpp:150] Setting up rescombined_5_EltwisePROD_relu_inter256_mbox_priorbox
I0616 20:17:43.154047 55647 net.cpp:157] Top shape: 1 2 12800 (25600)
I0616 20:17:43.154050 55647 net.cpp:165] Memory required for data: 4015704544
I0616 20:17:43.154052 55647 layer_factory.hpp:77] Creating layer rescombined_6_EltwisePROD_relu_inter256_mbox_locnew
I0616 20:17:43.154062 55647 net.cpp:100] Creating Layer rescombined_6_EltwisePROD_relu_inter256_mbox_locnew
I0616 20:17:43.154067 55647 net.cpp:434] rescombined_6_EltwisePROD_relu_inter256_mbox_locnew <- rescombined_6_EltwisePROD_relu_inter256_rescombined_6_EltwisePROD_relu_inter256_relu_0_split_0
I0616 20:17:43.154072 55647 net.cpp:408] rescombined_6_EltwisePROD_relu_inter256_mbox_locnew -> rescombined_6_EltwisePROD_relu_inter256_mbox_locnew
I0616 20:17:43.156026 55647 net.cpp:150] Setting up rescombined_6_EltwisePROD_relu_inter256_mbox_locnew
I0616 20:17:43.156035 55647 net.cpp:157] Top shape: 4 32 10 10 (12800)
I0616 20:17:43.156038 55647 net.cpp:165] Memory required for data: 4015755744
I0616 20:17:43.156042 55647 layer_factory.hpp:77] Creating layer rescombined_6_EltwisePROD_relu_inter256_mbox_confnew
I0616 20:17:43.156049 55647 net.cpp:100] Creating Layer rescombined_6_EltwisePROD_relu_inter256_mbox_confnew
I0616 20:17:43.156054 55647 net.cpp:434] rescombined_6_EltwisePROD_relu_inter256_mbox_confnew <- rescombined_6_EltwisePROD_relu_inter256_rescombined_6_EltwisePROD_relu_inter256_relu_0_split_1
I0616 20:17:43.156080 55647 net.cpp:408] rescombined_6_EltwisePROD_relu_inter256_mbox_confnew -> rescombined_6_EltwisePROD_relu_inter256_mbox_confnew
I0616 20:17:43.163239 55647 net.cpp:150] Setting up rescombined_6_EltwisePROD_relu_inter256_mbox_confnew
I0616 20:17:43.163249 55647 net.cpp:157] Top shape: 4 168 10 10 (67200)
I0616 20:17:43.163251 55647 net.cpp:165] Memory required for data: 4016024544
I0616 20:17:43.163256 55647 layer_factory.hpp:77] Creating layer rescombined_6_EltwisePROD_relu_inter256_mbox_priorbox
I0616 20:17:43.163262 55647 net.cpp:100] Creating Layer rescombined_6_EltwisePROD_relu_inter256_mbox_priorbox
I0616 20:17:43.163267 55647 net.cpp:434] rescombined_6_EltwisePROD_relu_inter256_mbox_priorbox <- rescombined_6_EltwisePROD_relu_inter256_rescombined_6_EltwisePROD_relu_inter256_relu_0_split_2
I0616 20:17:43.163273 55647 net.cpp:434] rescombined_6_EltwisePROD_relu_inter256_mbox_priorbox <- data_data_0_split_3
I0616 20:17:43.163282 55647 net.cpp:408] rescombined_6_EltwisePROD_relu_inter256_mbox_priorbox -> rescombined_6_EltwisePROD_relu_inter256_mbox_priorbox
I0616 20:17:43.163302 55647 net.cpp:150] Setting up rescombined_6_EltwisePROD_relu_inter256_mbox_priorbox
I0616 20:17:43.163305 55647 net.cpp:157] Top shape: 1 2 3200 (6400)
I0616 20:17:43.163308 55647 net.cpp:165] Memory required for data: 4016050144
I0616 20:17:43.163311 55647 layer_factory.hpp:77] Creating layer rescombined_7_EltwisePROD_relu_inter256_mbox_locnew
I0616 20:17:43.163317 55647 net.cpp:100] Creating Layer rescombined_7_EltwisePROD_relu_inter256_mbox_locnew
I0616 20:17:43.163322 55647 net.cpp:434] rescombined_7_EltwisePROD_relu_inter256_mbox_locnew <- rescombined_7_EltwisePROD_relu_inter256_rescombined_7_EltwisePROD_relu_inter256_relu_0_split_0
I0616 20:17:43.163327 55647 net.cpp:408] rescombined_7_EltwisePROD_relu_inter256_mbox_locnew -> rescombined_7_EltwisePROD_relu_inter256_mbox_locnew
I0616 20:17:43.165133 55647 net.cpp:150] Setting up rescombined_7_EltwisePROD_relu_inter256_mbox_locnew
I0616 20:17:43.165140 55647 net.cpp:157] Top shape: 4 32 5 5 (3200)
I0616 20:17:43.165143 55647 net.cpp:165] Memory required for data: 4016062944
I0616 20:17:43.165148 55647 layer_factory.hpp:77] Creating layer rescombined_7_EltwisePROD_relu_inter256_mbox_confnew
I0616 20:17:43.165155 55647 net.cpp:100] Creating Layer rescombined_7_EltwisePROD_relu_inter256_mbox_confnew
I0616 20:17:43.165160 55647 net.cpp:434] rescombined_7_EltwisePROD_relu_inter256_mbox_confnew <- rescombined_7_EltwisePROD_relu_inter256_rescombined_7_EltwisePROD_relu_inter256_relu_0_split_1
I0616 20:17:43.165169 55647 net.cpp:408] rescombined_7_EltwisePROD_relu_inter256_mbox_confnew -> rescombined_7_EltwisePROD_relu_inter256_mbox_confnew
I0616 20:17:43.172351 55647 net.cpp:150] Setting up rescombined_7_EltwisePROD_relu_inter256_mbox_confnew
I0616 20:17:43.172361 55647 net.cpp:157] Top shape: 4 168 5 5 (16800)
I0616 20:17:43.172365 55647 net.cpp:165] Memory required for data: 4016130144
I0616 20:17:43.172370 55647 layer_factory.hpp:77] Creating layer rescombined_7_EltwisePROD_relu_inter256_mbox_priorbox
I0616 20:17:43.172379 55647 net.cpp:100] Creating Layer rescombined_7_EltwisePROD_relu_inter256_mbox_priorbox
I0616 20:17:43.172384 55647 net.cpp:434] rescombined_7_EltwisePROD_relu_inter256_mbox_priorbox <- rescombined_7_EltwisePROD_relu_inter256_rescombined_7_EltwisePROD_relu_inter256_relu_0_split_2
I0616 20:17:43.172392 55647 net.cpp:434] rescombined_7_EltwisePROD_relu_inter256_mbox_priorbox <- data_data_0_split_4
I0616 20:17:43.172399 55647 net.cpp:408] rescombined_7_EltwisePROD_relu_inter256_mbox_priorbox -> rescombined_7_EltwisePROD_relu_inter256_mbox_priorbox
I0616 20:17:43.172421 55647 net.cpp:150] Setting up rescombined_7_EltwisePROD_relu_inter256_mbox_priorbox
I0616 20:17:43.172425 55647 net.cpp:157] Top shape: 1 2 800 (1600)
I0616 20:17:43.172427 55647 net.cpp:165] Memory required for data: 4016136544
I0616 20:17:43.172430 55647 layer_factory.hpp:77] Creating layer rescombined_8_EltwisePROD_relu_inter256_mbox_locnew
I0616 20:17:43.172456 55647 net.cpp:100] Creating Layer rescombined_8_EltwisePROD_relu_inter256_mbox_locnew
I0616 20:17:43.172458 55647 net.cpp:434] rescombined_8_EltwisePROD_relu_inter256_mbox_locnew <- rescombined_8_EltwisePROD_relu_inter256_rescombined_8_EltwisePROD_relu_inter256_relu_0_split_0
I0616 20:17:43.172464 55647 net.cpp:408] rescombined_8_EltwisePROD_relu_inter256_mbox_locnew -> rescombined_8_EltwisePROD_relu_inter256_mbox_locnew
I0616 20:17:43.174283 55647 net.cpp:150] Setting up rescombined_8_EltwisePROD_relu_inter256_mbox_locnew
I0616 20:17:43.174290 55647 net.cpp:157] Top shape: 4 32 3 3 (1152)
I0616 20:17:43.174293 55647 net.cpp:165] Memory required for data: 4016141152
I0616 20:17:43.174297 55647 layer_factory.hpp:77] Creating layer rescombined_8_EltwisePROD_relu_inter256_mbox_confnew
I0616 20:17:43.174304 55647 net.cpp:100] Creating Layer rescombined_8_EltwisePROD_relu_inter256_mbox_confnew
I0616 20:17:43.174309 55647 net.cpp:434] rescombined_8_EltwisePROD_relu_inter256_mbox_confnew <- rescombined_8_EltwisePROD_relu_inter256_rescombined_8_EltwisePROD_relu_inter256_relu_0_split_1
I0616 20:17:43.174315 55647 net.cpp:408] rescombined_8_EltwisePROD_relu_inter256_mbox_confnew -> rescombined_8_EltwisePROD_relu_inter256_mbox_confnew
I0616 20:17:43.181481 55647 net.cpp:150] Setting up rescombined_8_EltwisePROD_relu_inter256_mbox_confnew
I0616 20:17:43.181491 55647 net.cpp:157] Top shape: 4 168 3 3 (6048)
I0616 20:17:43.181495 55647 net.cpp:165] Memory required for data: 4016165344
I0616 20:17:43.181501 55647 layer_factory.hpp:77] Creating layer rescombined_8_EltwisePROD_relu_inter256_mbox_priorbox
I0616 20:17:43.181509 55647 net.cpp:100] Creating Layer rescombined_8_EltwisePROD_relu_inter256_mbox_priorbox
I0616 20:17:43.181514 55647 net.cpp:434] rescombined_8_EltwisePROD_relu_inter256_mbox_priorbox <- rescombined_8_EltwisePROD_relu_inter256_rescombined_8_EltwisePROD_relu_inter256_relu_0_split_2
I0616 20:17:43.181520 55647 net.cpp:434] rescombined_8_EltwisePROD_relu_inter256_mbox_priorbox <- data_data_0_split_5
I0616 20:17:43.181526 55647 net.cpp:408] rescombined_8_EltwisePROD_relu_inter256_mbox_priorbox -> rescombined_8_EltwisePROD_relu_inter256_mbox_priorbox
I0616 20:17:43.181550 55647 net.cpp:150] Setting up rescombined_8_EltwisePROD_relu_inter256_mbox_priorbox
I0616 20:17:43.181553 55647 net.cpp:157] Top shape: 1 2 288 (576)
I0616 20:17:43.181556 55647 net.cpp:165] Memory required for data: 4016167648
I0616 20:17:43.181558 55647 layer_factory.hpp:77] Creating layer resres9_relu_inter256_mbox_locnew
I0616 20:17:43.181563 55647 net.cpp:100] Creating Layer resres9_relu_inter256_mbox_locnew
I0616 20:17:43.181568 55647 net.cpp:434] resres9_relu_inter256_mbox_locnew <- resres9_relu_inter256_resres9_relu_inter256_relu_0_split_0
I0616 20:17:43.181573 55647 net.cpp:408] resres9_relu_inter256_mbox_locnew -> resres9_relu_inter256_mbox_locnew
I0616 20:17:43.183383 55647 net.cpp:150] Setting up resres9_relu_inter256_mbox_locnew
I0616 20:17:43.183390 55647 net.cpp:157] Top shape: 4 32 1 1 (128)
I0616 20:17:43.183393 55647 net.cpp:165] Memory required for data: 4016168160
I0616 20:17:43.183398 55647 layer_factory.hpp:77] Creating layer resres9_relu_inter256_mbox_confnew
I0616 20:17:43.183403 55647 net.cpp:100] Creating Layer resres9_relu_inter256_mbox_confnew
I0616 20:17:43.183408 55647 net.cpp:434] resres9_relu_inter256_mbox_confnew <- resres9_relu_inter256_resres9_relu_inter256_relu_0_split_1
I0616 20:17:43.183413 55647 net.cpp:408] resres9_relu_inter256_mbox_confnew -> resres9_relu_inter256_mbox_confnew
I0616 20:17:43.190616 55647 net.cpp:150] Setting up resres9_relu_inter256_mbox_confnew
I0616 20:17:43.190624 55647 net.cpp:157] Top shape: 4 168 1 1 (672)
I0616 20:17:43.190629 55647 net.cpp:165] Memory required for data: 4016170848
I0616 20:17:43.190634 55647 layer_factory.hpp:77] Creating layer resres9_relu_inter256_mbox_priorbox
I0616 20:17:43.190642 55647 net.cpp:100] Creating Layer resres9_relu_inter256_mbox_priorbox
I0616 20:17:43.190649 55647 net.cpp:434] resres9_relu_inter256_mbox_priorbox <- resres9_relu_inter256_resres9_relu_inter256_relu_0_split_2
I0616 20:17:43.190680 55647 net.cpp:434] resres9_relu_inter256_mbox_priorbox <- data_data_0_split_6
I0616 20:17:43.190683 55647 net.cpp:408] resres9_relu_inter256_mbox_priorbox -> resres9_relu_inter256_mbox_priorbox
I0616 20:17:43.190706 55647 net.cpp:150] Setting up resres9_relu_inter256_mbox_priorbox
I0616 20:17:43.190711 55647 net.cpp:157] Top shape: 1 2 32 (64)
I0616 20:17:43.190713 55647 net.cpp:165] Memory required for data: 4016171104
I0616 20:17:43.190716 55647 layer_factory.hpp:77] Creating layer rescombined_3_EltwisePROD_relu_inter256_mbox_locnew_perm
I0616 20:17:43.190723 55647 net.cpp:100] Creating Layer rescombined_3_EltwisePROD_relu_inter256_mbox_locnew_perm
I0616 20:17:43.190728 55647 net.cpp:434] rescombined_3_EltwisePROD_relu_inter256_mbox_locnew_perm <- rescombined_3_EltwisePROD_relu_inter256_mbox_locnew
I0616 20:17:43.190733 55647 net.cpp:408] rescombined_3_EltwisePROD_relu_inter256_mbox_locnew_perm -> rescombined_3_EltwisePROD_relu_inter256_mbox_locnew_perm
I0616 20:17:43.190798 55647 net.cpp:150] Setting up rescombined_3_EltwisePROD_relu_inter256_mbox_locnew_perm
I0616 20:17:43.190802 55647 net.cpp:157] Top shape: 4 40 40 32 (204800)
I0616 20:17:43.190805 55647 net.cpp:165] Memory required for data: 4016990304
I0616 20:17:43.190809 55647 layer_factory.hpp:77] Creating layer rescombined_3_EltwisePROD_relu_inter256_mbox_locnew_flat
I0616 20:17:43.190814 55647 net.cpp:100] Creating Layer rescombined_3_EltwisePROD_relu_inter256_mbox_locnew_flat
I0616 20:17:43.190817 55647 net.cpp:434] rescombined_3_EltwisePROD_relu_inter256_mbox_locnew_flat <- rescombined_3_EltwisePROD_relu_inter256_mbox_locnew_perm
I0616 20:17:43.190822 55647 net.cpp:408] rescombined_3_EltwisePROD_relu_inter256_mbox_locnew_flat -> rescombined_3_EltwisePROD_relu_inter256_mbox_locnew_flat
I0616 20:17:43.190840 55647 net.cpp:150] Setting up rescombined_3_EltwisePROD_relu_inter256_mbox_locnew_flat
I0616 20:17:43.190845 55647 net.cpp:157] Top shape: 4 51200 (204800)
I0616 20:17:43.190847 55647 net.cpp:165] Memory required for data: 4017809504
I0616 20:17:43.190850 55647 layer_factory.hpp:77] Creating layer rescombined_5_EltwisePROD_relu_inter256_mbox_locnew_perm
I0616 20:17:43.190855 55647 net.cpp:100] Creating Layer rescombined_5_EltwisePROD_relu_inter256_mbox_locnew_perm
I0616 20:17:43.190858 55647 net.cpp:434] rescombined_5_EltwisePROD_relu_inter256_mbox_locnew_perm <- rescombined_5_EltwisePROD_relu_inter256_mbox_locnew
I0616 20:17:43.190866 55647 net.cpp:408] rescombined_5_EltwisePROD_relu_inter256_mbox_locnew_perm -> rescombined_5_EltwisePROD_relu_inter256_mbox_locnew_perm
I0616 20:17:43.190924 55647 net.cpp:150] Setting up rescombined_5_EltwisePROD_relu_inter256_mbox_locnew_perm
I0616 20:17:43.190929 55647 net.cpp:157] Top shape: 4 20 20 32 (51200)
I0616 20:17:43.190933 55647 net.cpp:165] Memory required for data: 4018014304
I0616 20:17:43.190937 55647 layer_factory.hpp:77] Creating layer rescombined_5_EltwisePROD_relu_inter256_mbox_locnew_flat
I0616 20:17:43.190940 55647 net.cpp:100] Creating Layer rescombined_5_EltwisePROD_relu_inter256_mbox_locnew_flat
I0616 20:17:43.190943 55647 net.cpp:434] rescombined_5_EltwisePROD_relu_inter256_mbox_locnew_flat <- rescombined_5_EltwisePROD_relu_inter256_mbox_locnew_perm
I0616 20:17:43.190948 55647 net.cpp:408] rescombined_5_EltwisePROD_relu_inter256_mbox_locnew_flat -> rescombined_5_EltwisePROD_relu_inter256_mbox_locnew_flat
I0616 20:17:43.190963 55647 net.cpp:150] Setting up rescombined_5_EltwisePROD_relu_inter256_mbox_locnew_flat
I0616 20:17:43.190968 55647 net.cpp:157] Top shape: 4 12800 (51200)
I0616 20:17:43.190969 55647 net.cpp:165] Memory required for data: 4018219104
I0616 20:17:43.190973 55647 layer_factory.hpp:77] Creating layer rescombined_6_EltwisePROD_relu_inter256_mbox_locnew_perm
I0616 20:17:43.190976 55647 net.cpp:100] Creating Layer rescombined_6_EltwisePROD_relu_inter256_mbox_locnew_perm
I0616 20:17:43.190980 55647 net.cpp:434] rescombined_6_EltwisePROD_relu_inter256_mbox_locnew_perm <- rescombined_6_EltwisePROD_relu_inter256_mbox_locnew
I0616 20:17:43.190996 55647 net.cpp:408] rescombined_6_EltwisePROD_relu_inter256_mbox_locnew_perm -> rescombined_6_EltwisePROD_relu_inter256_mbox_locnew_perm
I0616 20:17:43.191052 55647 net.cpp:150] Setting up rescombined_6_EltwisePROD_relu_inter256_mbox_locnew_perm
I0616 20:17:43.191056 55647 net.cpp:157] Top shape: 4 10 10 32 (12800)
I0616 20:17:43.191059 55647 net.cpp:165] Memory required for data: 4018270304
I0616 20:17:43.191062 55647 layer_factory.hpp:77] Creating layer rescombined_6_EltwisePROD_relu_inter256_mbox_locnew_flat
I0616 20:17:43.191066 55647 net.cpp:100] Creating Layer rescombined_6_EltwisePROD_relu_inter256_mbox_locnew_flat
I0616 20:17:43.191069 55647 net.cpp:434] rescombined_6_EltwisePROD_relu_inter256_mbox_locnew_flat <- rescombined_6_EltwisePROD_relu_inter256_mbox_locnew_perm
I0616 20:17:43.191077 55647 net.cpp:408] rescombined_6_EltwisePROD_relu_inter256_mbox_locnew_flat -> rescombined_6_EltwisePROD_relu_inter256_mbox_locnew_flat
I0616 20:17:43.191093 55647 net.cpp:150] Setting up rescombined_6_EltwisePROD_relu_inter256_mbox_locnew_flat
I0616 20:17:43.191097 55647 net.cpp:157] Top shape: 4 3200 (12800)
I0616 20:17:43.191100 55647 net.cpp:165] Memory required for data: 4018321504
I0616 20:17:43.191102 55647 layer_factory.hpp:77] Creating layer rescombined_7_EltwisePROD_relu_inter256_mbox_locnew_perm
I0616 20:17:43.191107 55647 net.cpp:100] Creating Layer rescombined_7_EltwisePROD_relu_inter256_mbox_locnew_perm
I0616 20:17:43.191113 55647 net.cpp:434] rescombined_7_EltwisePROD_relu_inter256_mbox_locnew_perm <- rescombined_7_EltwisePROD_relu_inter256_mbox_locnew
I0616 20:17:43.191118 55647 net.cpp:408] rescombined_7_EltwisePROD_relu_inter256_mbox_locnew_perm -> rescombined_7_EltwisePROD_relu_inter256_mbox_locnew_perm
I0616 20:17:43.191171 55647 net.cpp:150] Setting up rescombined_7_EltwisePROD_relu_inter256_mbox_locnew_perm
I0616 20:17:43.191176 55647 net.cpp:157] Top shape: 4 5 5 32 (3200)
I0616 20:17:43.191179 55647 net.cpp:165] Memory required for data: 4018334304
I0616 20:17:43.191182 55647 layer_factory.hpp:77] Creating layer rescombined_7_EltwisePROD_relu_inter256_mbox_locnew_flat
I0616 20:17:43.191186 55647 net.cpp:100] Creating Layer rescombined_7_EltwisePROD_relu_inter256_mbox_locnew_flat
I0616 20:17:43.191190 55647 net.cpp:434] rescombined_7_EltwisePROD_relu_inter256_mbox_locnew_flat <- rescombined_7_EltwisePROD_relu_inter256_mbox_locnew_perm
I0616 20:17:43.191193 55647 net.cpp:408] rescombined_7_EltwisePROD_relu_inter256_mbox_locnew_flat -> rescombined_7_EltwisePROD_relu_inter256_mbox_locnew_flat
I0616 20:17:43.191210 55647 net.cpp:150] Setting up rescombined_7_EltwisePROD_relu_inter256_mbox_locnew_flat
I0616 20:17:43.191213 55647 net.cpp:157] Top shape: 4 800 (3200)
I0616 20:17:43.191216 55647 net.cpp:165] Memory required for data: 4018347104
I0616 20:17:43.191220 55647 layer_factory.hpp:77] Creating layer rescombined_8_EltwisePROD_relu_inter256_mbox_locnew_perm
I0616 20:17:43.191223 55647 net.cpp:100] Creating Layer rescombined_8_EltwisePROD_relu_inter256_mbox_locnew_perm
I0616 20:17:43.191227 55647 net.cpp:434] rescombined_8_EltwisePROD_relu_inter256_mbox_locnew_perm <- rescombined_8_EltwisePROD_relu_inter256_mbox_locnew
I0616 20:17:43.191231 55647 net.cpp:408] rescombined_8_EltwisePROD_relu_inter256_mbox_locnew_perm -> rescombined_8_EltwisePROD_relu_inter256_mbox_locnew_perm
I0616 20:17:43.191287 55647 net.cpp:150] Setting up rescombined_8_EltwisePROD_relu_inter256_mbox_locnew_perm
I0616 20:17:43.191290 55647 net.cpp:157] Top shape: 4 3 3 32 (1152)
I0616 20:17:43.191293 55647 net.cpp:165] Memory required for data: 4018351712
I0616 20:17:43.191296 55647 layer_factory.hpp:77] Creating layer rescombined_8_EltwisePROD_relu_inter256_mbox_locnew_flat
I0616 20:17:43.191300 55647 net.cpp:100] Creating Layer rescombined_8_EltwisePROD_relu_inter256_mbox_locnew_flat
I0616 20:17:43.191303 55647 net.cpp:434] rescombined_8_EltwisePROD_relu_inter256_mbox_locnew_flat <- rescombined_8_EltwisePROD_relu_inter256_mbox_locnew_perm
I0616 20:17:43.191308 55647 net.cpp:408] rescombined_8_EltwisePROD_relu_inter256_mbox_locnew_flat -> rescombined_8_EltwisePROD_relu_inter256_mbox_locnew_flat
I0616 20:17:43.191337 55647 net.cpp:150] Setting up rescombined_8_EltwisePROD_relu_inter256_mbox_locnew_flat
I0616 20:17:43.191341 55647 net.cpp:157] Top shape: 4 288 (1152)
I0616 20:17:43.191344 55647 net.cpp:165] Memory required for data: 4018356320
I0616 20:17:43.191346 55647 layer_factory.hpp:77] Creating layer resres9_relu_inter256_mbox_locnew_perm
I0616 20:17:43.191351 55647 net.cpp:100] Creating Layer resres9_relu_inter256_mbox_locnew_perm
I0616 20:17:43.191356 55647 net.cpp:434] resres9_relu_inter256_mbox_locnew_perm <- resres9_relu_inter256_mbox_locnew
I0616 20:17:43.191360 55647 net.cpp:408] resres9_relu_inter256_mbox_locnew_perm -> resres9_relu_inter256_mbox_locnew_perm
I0616 20:17:43.191416 55647 net.cpp:150] Setting up resres9_relu_inter256_mbox_locnew_perm
I0616 20:17:43.191421 55647 net.cpp:157] Top shape: 4 1 1 32 (128)
I0616 20:17:43.191424 55647 net.cpp:165] Memory required for data: 4018356832
I0616 20:17:43.191426 55647 layer_factory.hpp:77] Creating layer resres9_relu_inter256_mbox_locnew_flat
I0616 20:17:43.191431 55647 net.cpp:100] Creating Layer resres9_relu_inter256_mbox_locnew_flat
I0616 20:17:43.191433 55647 net.cpp:434] resres9_relu_inter256_mbox_locnew_flat <- resres9_relu_inter256_mbox_locnew_perm
I0616 20:17:43.191437 55647 net.cpp:408] resres9_relu_inter256_mbox_locnew_flat -> resres9_relu_inter256_mbox_locnew_flat
I0616 20:17:43.191453 55647 net.cpp:150] Setting up resres9_relu_inter256_mbox_locnew_flat
I0616 20:17:43.191457 55647 net.cpp:157] Top shape: 4 32 (128)
I0616 20:17:43.191459 55647 net.cpp:165] Memory required for data: 4018357344
I0616 20:17:43.191462 55647 layer_factory.hpp:77] Creating layer mbox_loc
I0616 20:17:43.191467 55647 net.cpp:100] Creating Layer mbox_loc
I0616 20:17:43.191469 55647 net.cpp:434] mbox_loc <- rescombined_3_EltwisePROD_relu_inter256_mbox_locnew_flat
I0616 20:17:43.191473 55647 net.cpp:434] mbox_loc <- rescombined_5_EltwisePROD_relu_inter256_mbox_locnew_flat
I0616 20:17:43.191476 55647 net.cpp:434] mbox_loc <- rescombined_6_EltwisePROD_relu_inter256_mbox_locnew_flat
I0616 20:17:43.191483 55647 net.cpp:434] mbox_loc <- rescombined_7_EltwisePROD_relu_inter256_mbox_locnew_flat
I0616 20:17:43.191485 55647 net.cpp:434] mbox_loc <- rescombined_8_EltwisePROD_relu_inter256_mbox_locnew_flat
I0616 20:17:43.191489 55647 net.cpp:434] mbox_loc <- resres9_relu_inter256_mbox_locnew_flat
I0616 20:17:43.191493 55647 net.cpp:408] mbox_loc -> mbox_loc
I0616 20:17:43.191520 55647 net.cpp:150] Setting up mbox_loc
I0616 20:17:43.191524 55647 net.cpp:157] Top shape: 4 68320 (273280)
I0616 20:17:43.191527 55647 net.cpp:165] Memory required for data: 4019450464
I0616 20:17:43.191529 55647 layer_factory.hpp:77] Creating layer rescombined_3_EltwisePROD_relu_inter256_mbox_confnew_perm
I0616 20:17:43.191534 55647 net.cpp:100] Creating Layer rescombined_3_EltwisePROD_relu_inter256_mbox_confnew_perm
I0616 20:17:43.191537 55647 net.cpp:434] rescombined_3_EltwisePROD_relu_inter256_mbox_confnew_perm <- rescombined_3_EltwisePROD_relu_inter256_mbox_confnew
I0616 20:17:43.191542 55647 net.cpp:408] rescombined_3_EltwisePROD_relu_inter256_mbox_confnew_perm -> rescombined_3_EltwisePROD_relu_inter256_mbox_confnew_perm
I0616 20:17:43.191599 55647 net.cpp:150] Setting up rescombined_3_EltwisePROD_relu_inter256_mbox_confnew_perm
I0616 20:17:43.191602 55647 net.cpp:157] Top shape: 4 40 40 168 (1075200)
I0616 20:17:43.191606 55647 net.cpp:165] Memory required for data: 4023751264
I0616 20:17:43.191608 55647 layer_factory.hpp:77] Creating layer rescombined_3_EltwisePROD_relu_inter256_mbox_confnew_flat
I0616 20:17:43.191612 55647 net.cpp:100] Creating Layer rescombined_3_EltwisePROD_relu_inter256_mbox_confnew_flat
I0616 20:17:43.191615 55647 net.cpp:434] rescombined_3_EltwisePROD_relu_inter256_mbox_confnew_flat <- rescombined_3_EltwisePROD_relu_inter256_mbox_confnew_perm
I0616 20:17:43.191620 55647 net.cpp:408] rescombined_3_EltwisePROD_relu_inter256_mbox_confnew_flat -> rescombined_3_EltwisePROD_relu_inter256_mbox_confnew_flat
I0616 20:17:43.191646 55647 net.cpp:150] Setting up rescombined_3_EltwisePROD_relu_inter256_mbox_confnew_flat
I0616 20:17:43.191650 55647 net.cpp:157] Top shape: 4 268800 (1075200)
I0616 20:17:43.191653 55647 net.cpp:165] Memory required for data: 4028052064
I0616 20:17:43.191656 55647 layer_factory.hpp:77] Creating layer rescombined_5_EltwisePROD_relu_inter256_mbox_confnew_perm
I0616 20:17:43.191661 55647 net.cpp:100] Creating Layer rescombined_5_EltwisePROD_relu_inter256_mbox_confnew_perm
I0616 20:17:43.191664 55647 net.cpp:434] rescombined_5_EltwisePROD_relu_inter256_mbox_confnew_perm <- rescombined_5_EltwisePROD_relu_inter256_mbox_confnew
I0616 20:17:43.191668 55647 net.cpp:408] rescombined_5_EltwisePROD_relu_inter256_mbox_confnew_perm -> rescombined_5_EltwisePROD_relu_inter256_mbox_confnew_perm
I0616 20:17:43.191723 55647 net.cpp:150] Setting up rescombined_5_EltwisePROD_relu_inter256_mbox_confnew_perm
I0616 20:17:43.191728 55647 net.cpp:157] Top shape: 4 20 20 168 (268800)
I0616 20:17:43.191731 55647 net.cpp:165] Memory required for data: 4029127264
I0616 20:17:43.191735 55647 layer_factory.hpp:77] Creating layer rescombined_5_EltwisePROD_relu_inter256_mbox_confnew_flat
I0616 20:17:43.191737 55647 net.cpp:100] Creating Layer rescombined_5_EltwisePROD_relu_inter256_mbox_confnew_flat
I0616 20:17:43.191741 55647 net.cpp:434] rescombined_5_EltwisePROD_relu_inter256_mbox_confnew_flat <- rescombined_5_EltwisePROD_relu_inter256_mbox_confnew_perm
I0616 20:17:43.191745 55647 net.cpp:408] rescombined_5_EltwisePROD_relu_inter256_mbox_confnew_flat -> rescombined_5_EltwisePROD_relu_inter256_mbox_confnew_flat
I0616 20:17:43.191764 55647 net.cpp:150] Setting up rescombined_5_EltwisePROD_relu_inter256_mbox_confnew_flat
I0616 20:17:43.191768 55647 net.cpp:157] Top shape: 4 67200 (268800)
I0616 20:17:43.191771 55647 net.cpp:165] Memory required for data: 4030202464
I0616 20:17:43.191773 55647 layer_factory.hpp:77] Creating layer rescombined_6_EltwisePROD_relu_inter256_mbox_confnew_perm
I0616 20:17:43.191779 55647 net.cpp:100] Creating Layer rescombined_6_EltwisePROD_relu_inter256_mbox_confnew_perm
I0616 20:17:43.191785 55647 net.cpp:434] rescombined_6_EltwisePROD_relu_inter256_mbox_confnew_perm <- rescombined_6_EltwisePROD_relu_inter256_mbox_confnew
I0616 20:17:43.191789 55647 net.cpp:408] rescombined_6_EltwisePROD_relu_inter256_mbox_confnew_perm -> rescombined_6_EltwisePROD_relu_inter256_mbox_confnew_perm
I0616 20:17:43.191844 55647 net.cpp:150] Setting up rescombined_6_EltwisePROD_relu_inter256_mbox_confnew_perm
I0616 20:17:43.191848 55647 net.cpp:157] Top shape: 4 10 10 168 (67200)
I0616 20:17:43.191851 55647 net.cpp:165] Memory required for data: 4030471264
I0616 20:17:43.191854 55647 layer_factory.hpp:77] Creating layer rescombined_6_EltwisePROD_relu_inter256_mbox_confnew_flat
I0616 20:17:43.191859 55647 net.cpp:100] Creating Layer rescombined_6_EltwisePROD_relu_inter256_mbox_confnew_flat
I0616 20:17:43.191861 55647 net.cpp:434] rescombined_6_EltwisePROD_relu_inter256_mbox_confnew_flat <- rescombined_6_EltwisePROD_relu_inter256_mbox_confnew_perm
I0616 20:17:43.191865 55647 net.cpp:408] rescombined_6_EltwisePROD_relu_inter256_mbox_confnew_flat -> rescombined_6_EltwisePROD_relu_inter256_mbox_confnew_flat
I0616 20:17:43.191881 55647 net.cpp:150] Setting up rescombined_6_EltwisePROD_relu_inter256_mbox_confnew_flat
I0616 20:17:43.191884 55647 net.cpp:157] Top shape: 4 16800 (67200)
I0616 20:17:43.191887 55647 net.cpp:165] Memory required for data: 4030740064
I0616 20:17:43.191890 55647 layer_factory.hpp:77] Creating layer rescombined_7_EltwisePROD_relu_inter256_mbox_confnew_perm
I0616 20:17:43.191895 55647 net.cpp:100] Creating Layer rescombined_7_EltwisePROD_relu_inter256_mbox_confnew_perm
I0616 20:17:43.191900 55647 net.cpp:434] rescombined_7_EltwisePROD_relu_inter256_mbox_confnew_perm <- rescombined_7_EltwisePROD_relu_inter256_mbox_confnew
I0616 20:17:43.191903 55647 net.cpp:408] rescombined_7_EltwisePROD_relu_inter256_mbox_confnew_perm -> rescombined_7_EltwisePROD_relu_inter256_mbox_confnew_perm
I0616 20:17:43.191958 55647 net.cpp:150] Setting up rescombined_7_EltwisePROD_relu_inter256_mbox_confnew_perm
I0616 20:17:43.191970 55647 net.cpp:157] Top shape: 4 5 5 168 (16800)
I0616 20:17:43.191974 55647 net.cpp:165] Memory required for data: 4030807264
I0616 20:17:43.191977 55647 layer_factory.hpp:77] Creating layer rescombined_7_EltwisePROD_relu_inter256_mbox_confnew_flat
I0616 20:17:43.191980 55647 net.cpp:100] Creating Layer rescombined_7_EltwisePROD_relu_inter256_mbox_confnew_flat
I0616 20:17:43.191985 55647 net.cpp:434] rescombined_7_EltwisePROD_relu_inter256_mbox_confnew_flat <- rescombined_7_EltwisePROD_relu_inter256_mbox_confnew_perm
I0616 20:17:43.191990 55647 net.cpp:408] rescombined_7_EltwisePROD_relu_inter256_mbox_confnew_flat -> rescombined_7_EltwisePROD_relu_inter256_mbox_confnew_flat
I0616 20:17:43.192008 55647 net.cpp:150] Setting up rescombined_7_EltwisePROD_relu_inter256_mbox_confnew_flat
I0616 20:17:43.192010 55647 net.cpp:157] Top shape: 4 4200 (16800)
I0616 20:17:43.192013 55647 net.cpp:165] Memory required for data: 4030874464
I0616 20:17:43.192015 55647 layer_factory.hpp:77] Creating layer rescombined_8_EltwisePROD_relu_inter256_mbox_confnew_perm
I0616 20:17:43.192020 55647 net.cpp:100] Creating Layer rescombined_8_EltwisePROD_relu_inter256_mbox_confnew_perm
I0616 20:17:43.192023 55647 net.cpp:434] rescombined_8_EltwisePROD_relu_inter256_mbox_confnew_perm <- rescombined_8_EltwisePROD_relu_inter256_mbox_confnew
I0616 20:17:43.192028 55647 net.cpp:408] rescombined_8_EltwisePROD_relu_inter256_mbox_confnew_perm -> rescombined_8_EltwisePROD_relu_inter256_mbox_confnew_perm
I0616 20:17:43.192083 55647 net.cpp:150] Setting up rescombined_8_EltwisePROD_relu_inter256_mbox_confnew_perm
I0616 20:17:43.192087 55647 net.cpp:157] Top shape: 4 3 3 168 (6048)
I0616 20:17:43.192091 55647 net.cpp:165] Memory required for data: 4030898656
I0616 20:17:43.192093 55647 layer_factory.hpp:77] Creating layer rescombined_8_EltwisePROD_relu_inter256_mbox_confnew_flat
I0616 20:17:43.192098 55647 net.cpp:100] Creating Layer rescombined_8_EltwisePROD_relu_inter256_mbox_confnew_flat
I0616 20:17:43.192102 55647 net.cpp:434] rescombined_8_EltwisePROD_relu_inter256_mbox_confnew_flat <- rescombined_8_EltwisePROD_relu_inter256_mbox_confnew_perm
I0616 20:17:43.192106 55647 net.cpp:408] rescombined_8_EltwisePROD_relu_inter256_mbox_confnew_flat -> rescombined_8_EltwisePROD_relu_inter256_mbox_confnew_flat
I0616 20:17:43.192123 55647 net.cpp:150] Setting up rescombined_8_EltwisePROD_relu_inter256_mbox_confnew_flat
I0616 20:17:43.192126 55647 net.cpp:157] Top shape: 4 1512 (6048)
I0616 20:17:43.192129 55647 net.cpp:165] Memory required for data: 4030922848
I0616 20:17:43.192132 55647 layer_factory.hpp:77] Creating layer resres9_relu_inter256_mbox_confnew_perm
I0616 20:17:43.192137 55647 net.cpp:100] Creating Layer resres9_relu_inter256_mbox_confnew_perm
I0616 20:17:43.192142 55647 net.cpp:434] resres9_relu_inter256_mbox_confnew_perm <- resres9_relu_inter256_mbox_confnew
I0616 20:17:43.192145 55647 net.cpp:408] resres9_relu_inter256_mbox_confnew_perm -> resres9_relu_inter256_mbox_confnew_perm
I0616 20:17:43.192201 55647 net.cpp:150] Setting up resres9_relu_inter256_mbox_confnew_perm
I0616 20:17:43.192204 55647 net.cpp:157] Top shape: 4 1 1 168 (672)
I0616 20:17:43.192209 55647 net.cpp:165] Memory required for data: 4030925536
I0616 20:17:43.192210 55647 layer_factory.hpp:77] Creating layer resres9_relu_inter256_mbox_confnew_flat
I0616 20:17:43.192215 55647 net.cpp:100] Creating Layer resres9_relu_inter256_mbox_confnew_flat
I0616 20:17:43.192219 55647 net.cpp:434] resres9_relu_inter256_mbox_confnew_flat <- resres9_relu_inter256_mbox_confnew_perm
I0616 20:17:43.192224 55647 net.cpp:408] resres9_relu_inter256_mbox_confnew_flat -> resres9_relu_inter256_mbox_confnew_flat
I0616 20:17:43.192239 55647 net.cpp:150] Setting up resres9_relu_inter256_mbox_confnew_flat
I0616 20:17:43.192242 55647 net.cpp:157] Top shape: 4 168 (672)
I0616 20:17:43.192245 55647 net.cpp:165] Memory required for data: 4030928224
I0616 20:17:43.192247 55647 layer_factory.hpp:77] Creating layer mbox_conf
I0616 20:17:43.192262 55647 net.cpp:100] Creating Layer mbox_conf
I0616 20:17:43.192265 55647 net.cpp:434] mbox_conf <- rescombined_3_EltwisePROD_relu_inter256_mbox_confnew_flat
I0616 20:17:43.192270 55647 net.cpp:434] mbox_conf <- rescombined_5_EltwisePROD_relu_inter256_mbox_confnew_flat
I0616 20:17:43.192272 55647 net.cpp:434] mbox_conf <- rescombined_6_EltwisePROD_relu_inter256_mbox_confnew_flat
I0616 20:17:43.192276 55647 net.cpp:434] mbox_conf <- rescombined_7_EltwisePROD_relu_inter256_mbox_confnew_flat
I0616 20:17:43.192278 55647 net.cpp:434] mbox_conf <- rescombined_8_EltwisePROD_relu_inter256_mbox_confnew_flat
I0616 20:17:43.192283 55647 net.cpp:434] mbox_conf <- resres9_relu_inter256_mbox_confnew_flat
I0616 20:17:43.192288 55647 net.cpp:408] mbox_conf -> mbox_conf
I0616 20:17:43.192306 55647 net.cpp:150] Setting up mbox_conf
I0616 20:17:43.192310 55647 net.cpp:157] Top shape: 4 358680 (1434720)
I0616 20:17:43.192313 55647 net.cpp:165] Memory required for data: 4036667104
I0616 20:17:43.192317 55647 layer_factory.hpp:77] Creating layer mbox_priorbox
I0616 20:17:43.192320 55647 net.cpp:100] Creating Layer mbox_priorbox
I0616 20:17:43.192323 55647 net.cpp:434] mbox_priorbox <- rescombined_3_EltwisePROD_relu_inter256_mbox_priorbox
I0616 20:17:43.192327 55647 net.cpp:434] mbox_priorbox <- rescombined_5_EltwisePROD_relu_inter256_mbox_priorbox
I0616 20:17:43.192330 55647 net.cpp:434] mbox_priorbox <- rescombined_6_EltwisePROD_relu_inter256_mbox_priorbox
I0616 20:17:43.192333 55647 net.cpp:434] mbox_priorbox <- rescombined_7_EltwisePROD_relu_inter256_mbox_priorbox
I0616 20:17:43.192337 55647 net.cpp:434] mbox_priorbox <- rescombined_8_EltwisePROD_relu_inter256_mbox_priorbox
I0616 20:17:43.192339 55647 net.cpp:434] mbox_priorbox <- resres9_relu_inter256_mbox_priorbox
I0616 20:17:43.192343 55647 net.cpp:408] mbox_priorbox -> mbox_priorbox
I0616 20:17:43.192364 55647 net.cpp:150] Setting up mbox_priorbox
I0616 20:17:43.192368 55647 net.cpp:157] Top shape: 1 2 68320 (136640)
I0616 20:17:43.192371 55647 net.cpp:165] Memory required for data: 4037213664
I0616 20:17:43.192374 55647 layer_factory.hpp:77] Creating layer mbox_loss
I0616 20:17:43.192382 55647 net.cpp:100] Creating Layer mbox_loss
I0616 20:17:43.192386 55647 net.cpp:434] mbox_loss <- mbox_loc
I0616 20:17:43.192389 55647 net.cpp:434] mbox_loss <- mbox_conf
I0616 20:17:43.192392 55647 net.cpp:434] mbox_loss <- mbox_priorbox
…
